{
  "format": "graph-model",
  "generatedBy": "2.10.0",
  "convertedBy": "TensorFlow.js Converter v4.17.0",
  "signature": {
    "inputs": {
      "input_2": {
        "name": "input_2:0",
        "dtype": "DT_FLOAT",
        "tensorShape": {
          "dim": [
            { "size": "-1" },
            { "size": "160" },
            { "size": "160" },
            { "size": "3" }
          ]
        }
      }
    },
    "outputs": {
      "dense": {
        "name": "Identity:0",
        "dtype": "DT_FLOAT",
        "tensorShape": { "dim": [{ "size": "-1" }, { "size": "1" }] }
      }
    }
  },
  "modelTopology": {
    "node": [
      {
        "name": "ConstantFolding/StatefulPartitionedCall/model/tf.math.truediv/truediv_recip",
        "op": "Const",
        "attr": {
          "value": { "tensor": { "dtype": "DT_FLOAT", "tensorShape": {} } },
          "dtype": { "type": "DT_FLOAT" }
        }
      },
      {
        "name": "StatefulPartitionedCall/model/tf.math.subtract/Sub/y",
        "op": "Const",
        "attr": {
          "value": { "tensor": { "dtype": "DT_FLOAT", "tensorShape": {} } },
          "dtype": { "type": "DT_FLOAT" }
        }
      },
      {
        "name": "StatefulPartitionedCall/model/mobilenetv2_1.00_160/block_1_pad/Pad/paddings",
        "op": "Const",
        "attr": {
          "value": {
            "tensor": {
              "dtype": "DT_INT32",
              "tensorShape": { "dim": [{ "size": "4" }, { "size": "2" }] }
            }
          },
          "dtype": { "type": "DT_INT32" }
        }
      },
      {
        "name": "StatefulPartitionedCall/model/mobilenetv2_1.00_160/block_3_pad/Pad/paddings",
        "op": "Const",
        "attr": {
          "value": {
            "tensor": {
              "dtype": "DT_INT32",
              "tensorShape": { "dim": [{ "size": "4" }, { "size": "2" }] }
            }
          },
          "dtype": { "type": "DT_INT32" }
        }
      },
      {
        "name": "StatefulPartitionedCall/model/mobilenetv2_1.00_160/block_6_pad/Pad/paddings",
        "op": "Const",
        "attr": {
          "value": {
            "tensor": {
              "dtype": "DT_INT32",
              "tensorShape": { "dim": [{ "size": "4" }, { "size": "2" }] }
            }
          },
          "dtype": { "type": "DT_INT32" }
        }
      },
      {
        "name": "StatefulPartitionedCall/model/mobilenetv2_1.00_160/block_13_pad/Pad/paddings",
        "op": "Const",
        "attr": {
          "value": {
            "tensor": {
              "dtype": "DT_INT32",
              "tensorShape": { "dim": [{ "size": "4" }, { "size": "2" }] }
            }
          },
          "dtype": { "type": "DT_INT32" }
        }
      },
      {
        "name": "StatefulPartitionedCall/model/global_average_pooling2d/Mean/reduction_indices",
        "op": "Const",
        "attr": {
          "value": {
            "tensor": {
              "dtype": "DT_INT32",
              "tensorShape": { "dim": [{ "size": "2" }] }
            }
          },
          "dtype": { "type": "DT_INT32" }
        }
      },
      {
        "name": "StatefulPartitionedCall/model/dense/MatMul/ReadVariableOp",
        "op": "Const",
        "attr": {
          "value": {
            "tensor": {
              "dtype": "DT_FLOAT",
              "tensorShape": { "dim": [{ "size": "1280" }, { "size": "1" }] }
            }
          },
          "dtype": { "type": "DT_FLOAT" }
        }
      },
      {
        "name": "StatefulPartitionedCall/model/dense/BiasAdd/ReadVariableOp",
        "op": "Const",
        "attr": {
          "value": {
            "tensor": {
              "dtype": "DT_FLOAT",
              "tensorShape": { "dim": [{ "size": "1" }] }
            }
          },
          "dtype": { "type": "DT_FLOAT" }
        }
      },
      {
        "name": "input_2",
        "op": "Placeholder",
        "attr": {
          "shape": {
            "shape": {
              "dim": [
                { "size": "-1" },
                { "size": "160" },
                { "size": "160" },
                { "size": "3" }
              ]
            }
          },
          "dtype": { "type": "DT_FLOAT" }
        }
      },
      {
        "name": "StatefulPartitionedCall/model/mobilenetv2_1.00_160/Conv1/Conv2D_weights",
        "op": "Const",
        "attr": {
          "value": {
            "tensor": {
              "dtype": "DT_FLOAT",
              "tensorShape": {
                "dim": [
                  { "size": "3" },
                  { "size": "3" },
                  { "size": "3" },
                  { "size": "32" }
                ]
              }
            }
          },
          "dtype": { "type": "DT_FLOAT" }
        }
      },
      {
        "name": "StatefulPartitionedCall/model/mobilenetv2_1.00_160/Conv1/Conv2D_bn_offset",
        "op": "Const",
        "attr": {
          "value": {
            "tensor": {
              "dtype": "DT_FLOAT",
              "tensorShape": { "dim": [{ "size": "32" }] }
            }
          },
          "dtype": { "type": "DT_FLOAT" }
        }
      },
      {
        "name": "StatefulPartitionedCall/model/mobilenetv2_1.00_160/block_14_expand/Conv2D_weights",
        "op": "Const",
        "attr": {
          "value": {
            "tensor": {
              "dtype": "DT_FLOAT",
              "tensorShape": {
                "dim": [
                  { "size": "1" },
                  { "size": "1" },
                  { "size": "160" },
                  { "size": "960" }
                ]
              }
            }
          },
          "dtype": { "type": "DT_FLOAT" }
        }
      },
      {
        "name": "StatefulPartitionedCall/model/mobilenetv2_1.00_160/expanded_conv_depthwise/depthwise_weights",
        "op": "Const",
        "attr": {
          "value": {
            "tensor": {
              "dtype": "DT_FLOAT",
              "tensorShape": {
                "dim": [
                  { "size": "3" },
                  { "size": "3" },
                  { "size": "32" },
                  { "size": "1" }
                ]
              }
            }
          },
          "dtype": { "type": "DT_FLOAT" }
        }
      },
      {
        "name": "StatefulPartitionedCall/model/mobilenetv2_1.00_160/expanded_conv_depthwise/depthwise_bn_offset",
        "op": "Const",
        "attr": {
          "value": {
            "tensor": {
              "dtype": "DT_FLOAT",
              "tensorShape": { "dim": [{ "size": "32" }] }
            }
          },
          "dtype": { "type": "DT_FLOAT" }
        }
      },
      {
        "name": "StatefulPartitionedCall/model/mobilenetv2_1.00_160/expanded_conv_project/Conv2D_weights",
        "op": "Const",
        "attr": {
          "value": {
            "tensor": {
              "dtype": "DT_FLOAT",
              "tensorShape": {
                "dim": [
                  { "size": "1" },
                  { "size": "1" },
                  { "size": "32" },
                  { "size": "16" }
                ]
              }
            }
          },
          "dtype": { "type": "DT_FLOAT" }
        }
      },
      {
        "name": "StatefulPartitionedCall/model/mobilenetv2_1.00_160/expanded_conv_project/Conv2D_bn_offset",
        "op": "Const",
        "attr": {
          "value": {
            "tensor": {
              "dtype": "DT_FLOAT",
              "tensorShape": { "dim": [{ "size": "16" }] }
            }
          },
          "dtype": { "type": "DT_FLOAT" }
        }
      },
      {
        "name": "StatefulPartitionedCall/model/mobilenetv2_1.00_160/block_1_expand/Conv2D_weights",
        "op": "Const",
        "attr": {
          "value": {
            "tensor": {
              "dtype": "DT_FLOAT",
              "tensorShape": {
                "dim": [
                  { "size": "1" },
                  { "size": "1" },
                  { "size": "16" },
                  { "size": "96" }
                ]
              }
            }
          },
          "dtype": { "type": "DT_FLOAT" }
        }
      },
      {
        "name": "StatefulPartitionedCall/model/mobilenetv2_1.00_160/block_14_expand/Conv2D_bn_offset",
        "op": "Const",
        "attr": {
          "value": {
            "tensor": {
              "dtype": "DT_FLOAT",
              "tensorShape": { "dim": [{ "size": "960" }] }
            }
          },
          "dtype": { "type": "DT_FLOAT" }
        }
      },
      {
        "name": "StatefulPartitionedCall/model/mobilenetv2_1.00_160/block_1_expand/Conv2D_bn_offset",
        "op": "Const",
        "attr": {
          "value": {
            "tensor": {
              "dtype": "DT_FLOAT",
              "tensorShape": { "dim": [{ "size": "96" }] }
            }
          },
          "dtype": { "type": "DT_FLOAT" }
        }
      },
      {
        "name": "StatefulPartitionedCall/model/mobilenetv2_1.00_160/block_16_project/Conv2D_bn_offset",
        "op": "Const",
        "attr": {
          "value": {
            "tensor": {
              "dtype": "DT_FLOAT",
              "tensorShape": { "dim": [{ "size": "320" }] }
            }
          },
          "dtype": { "type": "DT_FLOAT" }
        }
      },
      {
        "name": "StatefulPartitionedCall/model/mobilenetv2_1.00_160/block_1_depthwise/depthwise_weights",
        "op": "Const",
        "attr": {
          "value": {
            "tensor": {
              "dtype": "DT_FLOAT",
              "tensorShape": {
                "dim": [
                  { "size": "3" },
                  { "size": "3" },
                  { "size": "96" },
                  { "size": "1" }
                ]
              }
            }
          },
          "dtype": { "type": "DT_FLOAT" }
        }
      },
      {
        "name": "StatefulPartitionedCall/model/mobilenetv2_1.00_160/block_1_depthwise/depthwise_bn_offset",
        "op": "Const",
        "attr": {
          "value": {
            "tensor": {
              "dtype": "DT_FLOAT",
              "tensorShape": { "dim": [{ "size": "96" }] }
            }
          },
          "dtype": { "type": "DT_FLOAT" }
        }
      },
      {
        "name": "StatefulPartitionedCall/model/mobilenetv2_1.00_160/block_1_project/Conv2D_weights",
        "op": "Const",
        "attr": {
          "value": {
            "tensor": {
              "dtype": "DT_FLOAT",
              "tensorShape": {
                "dim": [
                  { "size": "1" },
                  { "size": "1" },
                  { "size": "96" },
                  { "size": "24" }
                ]
              }
            }
          },
          "dtype": { "type": "DT_FLOAT" }
        }
      },
      {
        "name": "StatefulPartitionedCall/model/mobilenetv2_1.00_160/block_1_project/Conv2D_bn_offset",
        "op": "Const",
        "attr": {
          "value": {
            "tensor": {
              "dtype": "DT_FLOAT",
              "tensorShape": { "dim": [{ "size": "24" }] }
            }
          },
          "dtype": { "type": "DT_FLOAT" }
        }
      },
      {
        "name": "StatefulPartitionedCall/model/mobilenetv2_1.00_160/block_2_expand/Conv2D_weights",
        "op": "Const",
        "attr": {
          "value": {
            "tensor": {
              "dtype": "DT_FLOAT",
              "tensorShape": {
                "dim": [
                  { "size": "1" },
                  { "size": "1" },
                  { "size": "24" },
                  { "size": "144" }
                ]
              }
            }
          },
          "dtype": { "type": "DT_FLOAT" }
        }
      },
      {
        "name": "StatefulPartitionedCall/model/mobilenetv2_1.00_160/block_14_depthwise/depthwise_weights",
        "op": "Const",
        "attr": {
          "value": {
            "tensor": {
              "dtype": "DT_FLOAT",
              "tensorShape": {
                "dim": [
                  { "size": "3" },
                  { "size": "3" },
                  { "size": "960" },
                  { "size": "1" }
                ]
              }
            }
          },
          "dtype": { "type": "DT_FLOAT" }
        }
      },
      {
        "name": "StatefulPartitionedCall/model/mobilenetv2_1.00_160/block_2_expand/Conv2D_bn_offset",
        "op": "Const",
        "attr": {
          "value": {
            "tensor": {
              "dtype": "DT_FLOAT",
              "tensorShape": { "dim": [{ "size": "144" }] }
            }
          },
          "dtype": { "type": "DT_FLOAT" }
        }
      },
      {
        "name": "StatefulPartitionedCall/model/mobilenetv2_1.00_160/block_2_depthwise/depthwise_weights",
        "op": "Const",
        "attr": {
          "value": {
            "tensor": {
              "dtype": "DT_FLOAT",
              "tensorShape": {
                "dim": [
                  { "size": "3" },
                  { "size": "3" },
                  { "size": "144" },
                  { "size": "1" }
                ]
              }
            }
          },
          "dtype": { "type": "DT_FLOAT" }
        }
      },
      {
        "name": "StatefulPartitionedCall/model/mobilenetv2_1.00_160/block_2_depthwise/depthwise_bn_offset",
        "op": "Const",
        "attr": {
          "value": {
            "tensor": {
              "dtype": "DT_FLOAT",
              "tensorShape": { "dim": [{ "size": "144" }] }
            }
          },
          "dtype": { "type": "DT_FLOAT" }
        }
      },
      {
        "name": "StatefulPartitionedCall/model/mobilenetv2_1.00_160/block_2_project/Conv2D_weights",
        "op": "Const",
        "attr": {
          "value": {
            "tensor": {
              "dtype": "DT_FLOAT",
              "tensorShape": {
                "dim": [
                  { "size": "1" },
                  { "size": "1" },
                  { "size": "144" },
                  { "size": "24" }
                ]
              }
            }
          },
          "dtype": { "type": "DT_FLOAT" }
        }
      },
      {
        "name": "StatefulPartitionedCall/model/mobilenetv2_1.00_160/block_14_depthwise/depthwise_bn_offset",
        "op": "Const",
        "attr": {
          "value": {
            "tensor": {
              "dtype": "DT_FLOAT",
              "tensorShape": { "dim": [{ "size": "960" }] }
            }
          },
          "dtype": { "type": "DT_FLOAT" }
        }
      },
      {
        "name": "StatefulPartitionedCall/model/mobilenetv2_1.00_160/block_2_project/Conv2D_bn_offset",
        "op": "Const",
        "attr": {
          "value": {
            "tensor": {
              "dtype": "DT_FLOAT",
              "tensorShape": { "dim": [{ "size": "24" }] }
            }
          },
          "dtype": { "type": "DT_FLOAT" }
        }
      },
      {
        "name": "StatefulPartitionedCall/model/mobilenetv2_1.00_160/block_3_expand/Conv2D_weights",
        "op": "Const",
        "attr": {
          "value": {
            "tensor": {
              "dtype": "DT_FLOAT",
              "tensorShape": {
                "dim": [
                  { "size": "1" },
                  { "size": "1" },
                  { "size": "24" },
                  { "size": "144" }
                ]
              }
            }
          },
          "dtype": { "type": "DT_FLOAT" }
        }
      },
      {
        "name": "StatefulPartitionedCall/model/mobilenetv2_1.00_160/block_3_expand/Conv2D_bn_offset",
        "op": "Const",
        "attr": {
          "value": {
            "tensor": {
              "dtype": "DT_FLOAT",
              "tensorShape": { "dim": [{ "size": "144" }] }
            }
          },
          "dtype": { "type": "DT_FLOAT" }
        }
      },
      {
        "name": "StatefulPartitionedCall/model/mobilenetv2_1.00_160/block_3_depthwise/depthwise_weights",
        "op": "Const",
        "attr": {
          "value": {
            "tensor": {
              "dtype": "DT_FLOAT",
              "tensorShape": {
                "dim": [
                  { "size": "3" },
                  { "size": "3" },
                  { "size": "144" },
                  { "size": "1" }
                ]
              }
            }
          },
          "dtype": { "type": "DT_FLOAT" }
        }
      },
      {
        "name": "StatefulPartitionedCall/model/mobilenetv2_1.00_160/block_3_depthwise/depthwise_bn_offset",
        "op": "Const",
        "attr": {
          "value": {
            "tensor": {
              "dtype": "DT_FLOAT",
              "tensorShape": { "dim": [{ "size": "144" }] }
            }
          },
          "dtype": { "type": "DT_FLOAT" }
        }
      },
      {
        "name": "StatefulPartitionedCall/model/mobilenetv2_1.00_160/block_3_project/Conv2D_weights",
        "op": "Const",
        "attr": {
          "value": {
            "tensor": {
              "dtype": "DT_FLOAT",
              "tensorShape": {
                "dim": [
                  { "size": "1" },
                  { "size": "1" },
                  { "size": "144" },
                  { "size": "32" }
                ]
              }
            }
          },
          "dtype": { "type": "DT_FLOAT" }
        }
      },
      {
        "name": "StatefulPartitionedCall/model/mobilenetv2_1.00_160/block_14_project/Conv2D_weights",
        "op": "Const",
        "attr": {
          "value": {
            "tensor": {
              "dtype": "DT_FLOAT",
              "tensorShape": {
                "dim": [
                  { "size": "1" },
                  { "size": "1" },
                  { "size": "960" },
                  { "size": "160" }
                ]
              }
            }
          },
          "dtype": { "type": "DT_FLOAT" }
        }
      },
      {
        "name": "StatefulPartitionedCall/model/mobilenetv2_1.00_160/block_3_project/Conv2D_bn_offset",
        "op": "Const",
        "attr": {
          "value": {
            "tensor": {
              "dtype": "DT_FLOAT",
              "tensorShape": { "dim": [{ "size": "32" }] }
            }
          },
          "dtype": { "type": "DT_FLOAT" }
        }
      },
      {
        "name": "StatefulPartitionedCall/model/mobilenetv2_1.00_160/block_4_expand/Conv2D_weights",
        "op": "Const",
        "attr": {
          "value": {
            "tensor": {
              "dtype": "DT_FLOAT",
              "tensorShape": {
                "dim": [
                  { "size": "1" },
                  { "size": "1" },
                  { "size": "32" },
                  { "size": "192" }
                ]
              }
            }
          },
          "dtype": { "type": "DT_FLOAT" }
        }
      },
      {
        "name": "StatefulPartitionedCall/model/mobilenetv2_1.00_160/block_4_expand/Conv2D_bn_offset",
        "op": "Const",
        "attr": {
          "value": {
            "tensor": {
              "dtype": "DT_FLOAT",
              "tensorShape": { "dim": [{ "size": "192" }] }
            }
          },
          "dtype": { "type": "DT_FLOAT" }
        }
      },
      {
        "name": "StatefulPartitionedCall/model/mobilenetv2_1.00_160/block_14_project/Conv2D_bn_offset",
        "op": "Const",
        "attr": {
          "value": {
            "tensor": {
              "dtype": "DT_FLOAT",
              "tensorShape": { "dim": [{ "size": "160" }] }
            }
          },
          "dtype": { "type": "DT_FLOAT" }
        }
      },
      {
        "name": "StatefulPartitionedCall/model/mobilenetv2_1.00_160/block_4_depthwise/depthwise_weights",
        "op": "Const",
        "attr": {
          "value": {
            "tensor": {
              "dtype": "DT_FLOAT",
              "tensorShape": {
                "dim": [
                  { "size": "3" },
                  { "size": "3" },
                  { "size": "192" },
                  { "size": "1" }
                ]
              }
            }
          },
          "dtype": { "type": "DT_FLOAT" }
        }
      },
      {
        "name": "StatefulPartitionedCall/model/mobilenetv2_1.00_160/block_4_depthwise/depthwise_bn_offset",
        "op": "Const",
        "attr": {
          "value": {
            "tensor": {
              "dtype": "DT_FLOAT",
              "tensorShape": { "dim": [{ "size": "192" }] }
            }
          },
          "dtype": { "type": "DT_FLOAT" }
        }
      },
      {
        "name": "StatefulPartitionedCall/model/mobilenetv2_1.00_160/block_4_project/Conv2D_weights",
        "op": "Const",
        "attr": {
          "value": {
            "tensor": {
              "dtype": "DT_FLOAT",
              "tensorShape": {
                "dim": [
                  { "size": "1" },
                  { "size": "1" },
                  { "size": "192" },
                  { "size": "32" }
                ]
              }
            }
          },
          "dtype": { "type": "DT_FLOAT" }
        }
      },
      {
        "name": "StatefulPartitionedCall/model/mobilenetv2_1.00_160/block_4_project/Conv2D_bn_offset",
        "op": "Const",
        "attr": {
          "value": {
            "tensor": {
              "dtype": "DT_FLOAT",
              "tensorShape": { "dim": [{ "size": "32" }] }
            }
          },
          "dtype": { "type": "DT_FLOAT" }
        }
      },
      {
        "name": "StatefulPartitionedCall/model/mobilenetv2_1.00_160/block_5_expand/Conv2D_weights",
        "op": "Const",
        "attr": {
          "value": {
            "tensor": {
              "dtype": "DT_FLOAT",
              "tensorShape": {
                "dim": [
                  { "size": "1" },
                  { "size": "1" },
                  { "size": "32" },
                  { "size": "192" }
                ]
              }
            }
          },
          "dtype": { "type": "DT_FLOAT" }
        }
      },
      {
        "name": "StatefulPartitionedCall/model/mobilenetv2_1.00_160/block_5_expand/Conv2D_bn_offset",
        "op": "Const",
        "attr": {
          "value": {
            "tensor": {
              "dtype": "DT_FLOAT",
              "tensorShape": { "dim": [{ "size": "192" }] }
            }
          },
          "dtype": { "type": "DT_FLOAT" }
        }
      },
      {
        "name": "StatefulPartitionedCall/model/mobilenetv2_1.00_160/block_15_expand/Conv2D_weights",
        "op": "Const",
        "attr": {
          "value": {
            "tensor": {
              "dtype": "DT_FLOAT",
              "tensorShape": {
                "dim": [
                  { "size": "1" },
                  { "size": "1" },
                  { "size": "160" },
                  { "size": "960" }
                ]
              }
            }
          },
          "dtype": { "type": "DT_FLOAT" }
        }
      },
      {
        "name": "StatefulPartitionedCall/model/mobilenetv2_1.00_160/block_5_depthwise/depthwise_weights",
        "op": "Const",
        "attr": {
          "value": {
            "tensor": {
              "dtype": "DT_FLOAT",
              "tensorShape": {
                "dim": [
                  { "size": "3" },
                  { "size": "3" },
                  { "size": "192" },
                  { "size": "1" }
                ]
              }
            }
          },
          "dtype": { "type": "DT_FLOAT" }
        }
      },
      {
        "name": "StatefulPartitionedCall/model/mobilenetv2_1.00_160/block_5_depthwise/depthwise_bn_offset",
        "op": "Const",
        "attr": {
          "value": {
            "tensor": {
              "dtype": "DT_FLOAT",
              "tensorShape": { "dim": [{ "size": "192" }] }
            }
          },
          "dtype": { "type": "DT_FLOAT" }
        }
      },
      {
        "name": "StatefulPartitionedCall/model/mobilenetv2_1.00_160/block_5_project/Conv2D_weights",
        "op": "Const",
        "attr": {
          "value": {
            "tensor": {
              "dtype": "DT_FLOAT",
              "tensorShape": {
                "dim": [
                  { "size": "1" },
                  { "size": "1" },
                  { "size": "192" },
                  { "size": "32" }
                ]
              }
            }
          },
          "dtype": { "type": "DT_FLOAT" }
        }
      },
      {
        "name": "StatefulPartitionedCall/model/mobilenetv2_1.00_160/Conv_1/Conv2D_weights",
        "op": "Const",
        "attr": {
          "value": {
            "tensor": {
              "dtype": "DT_FLOAT",
              "tensorShape": {
                "dim": [
                  { "size": "1" },
                  { "size": "1" },
                  { "size": "320" },
                  { "size": "1280" }
                ]
              }
            }
          },
          "dtype": { "type": "DT_FLOAT" }
        }
      },
      {
        "name": "StatefulPartitionedCall/model/mobilenetv2_1.00_160/block_5_project/Conv2D_bn_offset",
        "op": "Const",
        "attr": {
          "value": {
            "tensor": {
              "dtype": "DT_FLOAT",
              "tensorShape": { "dim": [{ "size": "32" }] }
            }
          },
          "dtype": { "type": "DT_FLOAT" }
        }
      },
      {
        "name": "StatefulPartitionedCall/model/mobilenetv2_1.00_160/block_6_expand/Conv2D_weights",
        "op": "Const",
        "attr": {
          "value": {
            "tensor": {
              "dtype": "DT_FLOAT",
              "tensorShape": {
                "dim": [
                  { "size": "1" },
                  { "size": "1" },
                  { "size": "32" },
                  { "size": "192" }
                ]
              }
            }
          },
          "dtype": { "type": "DT_FLOAT" }
        }
      },
      {
        "name": "StatefulPartitionedCall/model/mobilenetv2_1.00_160/block_15_expand/Conv2D_bn_offset",
        "op": "Const",
        "attr": {
          "value": {
            "tensor": {
              "dtype": "DT_FLOAT",
              "tensorShape": { "dim": [{ "size": "960" }] }
            }
          },
          "dtype": { "type": "DT_FLOAT" }
        }
      },
      {
        "name": "StatefulPartitionedCall/model/mobilenetv2_1.00_160/block_6_expand/Conv2D_bn_offset",
        "op": "Const",
        "attr": {
          "value": {
            "tensor": {
              "dtype": "DT_FLOAT",
              "tensorShape": { "dim": [{ "size": "192" }] }
            }
          },
          "dtype": { "type": "DT_FLOAT" }
        }
      },
      {
        "name": "StatefulPartitionedCall/model/mobilenetv2_1.00_160/block_6_depthwise/depthwise_weights",
        "op": "Const",
        "attr": {
          "value": {
            "tensor": {
              "dtype": "DT_FLOAT",
              "tensorShape": {
                "dim": [
                  { "size": "3" },
                  { "size": "3" },
                  { "size": "192" },
                  { "size": "1" }
                ]
              }
            }
          },
          "dtype": { "type": "DT_FLOAT" }
        }
      },
      {
        "name": "StatefulPartitionedCall/model/mobilenetv2_1.00_160/block_6_depthwise/depthwise_bn_offset",
        "op": "Const",
        "attr": {
          "value": {
            "tensor": {
              "dtype": "DT_FLOAT",
              "tensorShape": { "dim": [{ "size": "192" }] }
            }
          },
          "dtype": { "type": "DT_FLOAT" }
        }
      },
      {
        "name": "StatefulPartitionedCall/model/mobilenetv2_1.00_160/block_6_project/Conv2D_weights",
        "op": "Const",
        "attr": {
          "value": {
            "tensor": {
              "dtype": "DT_FLOAT",
              "tensorShape": {
                "dim": [
                  { "size": "1" },
                  { "size": "1" },
                  { "size": "192" },
                  { "size": "64" }
                ]
              }
            }
          },
          "dtype": { "type": "DT_FLOAT" }
        }
      },
      {
        "name": "StatefulPartitionedCall/model/mobilenetv2_1.00_160/block_6_project/Conv2D_bn_offset",
        "op": "Const",
        "attr": {
          "value": {
            "tensor": {
              "dtype": "DT_FLOAT",
              "tensorShape": { "dim": [{ "size": "64" }] }
            }
          },
          "dtype": { "type": "DT_FLOAT" }
        }
      },
      {
        "name": "StatefulPartitionedCall/model/mobilenetv2_1.00_160/block_7_expand/Conv2D_weights",
        "op": "Const",
        "attr": {
          "value": {
            "tensor": {
              "dtype": "DT_FLOAT",
              "tensorShape": {
                "dim": [
                  { "size": "1" },
                  { "size": "1" },
                  { "size": "64" },
                  { "size": "384" }
                ]
              }
            }
          },
          "dtype": { "type": "DT_FLOAT" }
        }
      },
      {
        "name": "StatefulPartitionedCall/model/mobilenetv2_1.00_160/block_15_depthwise/depthwise_weights",
        "op": "Const",
        "attr": {
          "value": {
            "tensor": {
              "dtype": "DT_FLOAT",
              "tensorShape": {
                "dim": [
                  { "size": "3" },
                  { "size": "3" },
                  { "size": "960" },
                  { "size": "1" }
                ]
              }
            }
          },
          "dtype": { "type": "DT_FLOAT" }
        }
      },
      {
        "name": "StatefulPartitionedCall/model/mobilenetv2_1.00_160/block_7_expand/Conv2D_bn_offset",
        "op": "Const",
        "attr": {
          "value": {
            "tensor": {
              "dtype": "DT_FLOAT",
              "tensorShape": { "dim": [{ "size": "384" }] }
            }
          },
          "dtype": { "type": "DT_FLOAT" }
        }
      },
      {
        "name": "StatefulPartitionedCall/model/mobilenetv2_1.00_160/block_7_depthwise/depthwise_weights",
        "op": "Const",
        "attr": {
          "value": {
            "tensor": {
              "dtype": "DT_FLOAT",
              "tensorShape": {
                "dim": [
                  { "size": "3" },
                  { "size": "3" },
                  { "size": "384" },
                  { "size": "1" }
                ]
              }
            }
          },
          "dtype": { "type": "DT_FLOAT" }
        }
      },
      {
        "name": "StatefulPartitionedCall/model/mobilenetv2_1.00_160/block_7_depthwise/depthwise_bn_offset",
        "op": "Const",
        "attr": {
          "value": {
            "tensor": {
              "dtype": "DT_FLOAT",
              "tensorShape": { "dim": [{ "size": "384" }] }
            }
          },
          "dtype": { "type": "DT_FLOAT" }
        }
      },
      {
        "name": "StatefulPartitionedCall/model/mobilenetv2_1.00_160/block_7_project/Conv2D_weights",
        "op": "Const",
        "attr": {
          "value": {
            "tensor": {
              "dtype": "DT_FLOAT",
              "tensorShape": {
                "dim": [
                  { "size": "1" },
                  { "size": "1" },
                  { "size": "384" },
                  { "size": "64" }
                ]
              }
            }
          },
          "dtype": { "type": "DT_FLOAT" }
        }
      },
      {
        "name": "StatefulPartitionedCall/model/mobilenetv2_1.00_160/block_15_depthwise/depthwise_bn_offset",
        "op": "Const",
        "attr": {
          "value": {
            "tensor": {
              "dtype": "DT_FLOAT",
              "tensorShape": { "dim": [{ "size": "960" }] }
            }
          },
          "dtype": { "type": "DT_FLOAT" }
        }
      },
      {
        "name": "StatefulPartitionedCall/model/mobilenetv2_1.00_160/block_7_project/Conv2D_bn_offset",
        "op": "Const",
        "attr": {
          "value": {
            "tensor": {
              "dtype": "DT_FLOAT",
              "tensorShape": { "dim": [{ "size": "64" }] }
            }
          },
          "dtype": { "type": "DT_FLOAT" }
        }
      },
      {
        "name": "StatefulPartitionedCall/model/mobilenetv2_1.00_160/block_8_expand/Conv2D_weights",
        "op": "Const",
        "attr": {
          "value": {
            "tensor": {
              "dtype": "DT_FLOAT",
              "tensorShape": {
                "dim": [
                  { "size": "1" },
                  { "size": "1" },
                  { "size": "64" },
                  { "size": "384" }
                ]
              }
            }
          },
          "dtype": { "type": "DT_FLOAT" }
        }
      },
      {
        "name": "StatefulPartitionedCall/model/mobilenetv2_1.00_160/block_8_expand/Conv2D_bn_offset",
        "op": "Const",
        "attr": {
          "value": {
            "tensor": {
              "dtype": "DT_FLOAT",
              "tensorShape": { "dim": [{ "size": "384" }] }
            }
          },
          "dtype": { "type": "DT_FLOAT" }
        }
      },
      {
        "name": "StatefulPartitionedCall/model/mobilenetv2_1.00_160/block_8_depthwise/depthwise_weights",
        "op": "Const",
        "attr": {
          "value": {
            "tensor": {
              "dtype": "DT_FLOAT",
              "tensorShape": {
                "dim": [
                  { "size": "3" },
                  { "size": "3" },
                  { "size": "384" },
                  { "size": "1" }
                ]
              }
            }
          },
          "dtype": { "type": "DT_FLOAT" }
        }
      },
      {
        "name": "StatefulPartitionedCall/model/mobilenetv2_1.00_160/block_8_depthwise/depthwise_bn_offset",
        "op": "Const",
        "attr": {
          "value": {
            "tensor": {
              "dtype": "DT_FLOAT",
              "tensorShape": { "dim": [{ "size": "384" }] }
            }
          },
          "dtype": { "type": "DT_FLOAT" }
        }
      },
      {
        "name": "StatefulPartitionedCall/model/mobilenetv2_1.00_160/block_8_project/Conv2D_weights",
        "op": "Const",
        "attr": {
          "value": {
            "tensor": {
              "dtype": "DT_FLOAT",
              "tensorShape": {
                "dim": [
                  { "size": "1" },
                  { "size": "1" },
                  { "size": "384" },
                  { "size": "64" }
                ]
              }
            }
          },
          "dtype": { "type": "DT_FLOAT" }
        }
      },
      {
        "name": "StatefulPartitionedCall/model/mobilenetv2_1.00_160/block_15_project/Conv2D_weights",
        "op": "Const",
        "attr": {
          "value": {
            "tensor": {
              "dtype": "DT_FLOAT",
              "tensorShape": {
                "dim": [
                  { "size": "1" },
                  { "size": "1" },
                  { "size": "960" },
                  { "size": "160" }
                ]
              }
            }
          },
          "dtype": { "type": "DT_FLOAT" }
        }
      },
      {
        "name": "StatefulPartitionedCall/model/mobilenetv2_1.00_160/block_8_project/Conv2D_bn_offset",
        "op": "Const",
        "attr": {
          "value": {
            "tensor": {
              "dtype": "DT_FLOAT",
              "tensorShape": { "dim": [{ "size": "64" }] }
            }
          },
          "dtype": { "type": "DT_FLOAT" }
        }
      },
      {
        "name": "StatefulPartitionedCall/model/mobilenetv2_1.00_160/block_9_expand/Conv2D_weights",
        "op": "Const",
        "attr": {
          "value": {
            "tensor": {
              "dtype": "DT_FLOAT",
              "tensorShape": {
                "dim": [
                  { "size": "1" },
                  { "size": "1" },
                  { "size": "64" },
                  { "size": "384" }
                ]
              }
            }
          },
          "dtype": { "type": "DT_FLOAT" }
        }
      },
      {
        "name": "StatefulPartitionedCall/model/mobilenetv2_1.00_160/Conv_1/Conv2D_bn_offset",
        "op": "Const",
        "attr": {
          "value": {
            "tensor": {
              "dtype": "DT_FLOAT",
              "tensorShape": { "dim": [{ "size": "1280" }] }
            }
          },
          "dtype": { "type": "DT_FLOAT" }
        }
      },
      {
        "name": "StatefulPartitionedCall/model/mobilenetv2_1.00_160/block_9_expand/Conv2D_bn_offset",
        "op": "Const",
        "attr": {
          "value": {
            "tensor": {
              "dtype": "DT_FLOAT",
              "tensorShape": { "dim": [{ "size": "384" }] }
            }
          },
          "dtype": { "type": "DT_FLOAT" }
        }
      },
      {
        "name": "StatefulPartitionedCall/model/mobilenetv2_1.00_160/block_15_project/Conv2D_bn_offset",
        "op": "Const",
        "attr": {
          "value": {
            "tensor": {
              "dtype": "DT_FLOAT",
              "tensorShape": { "dim": [{ "size": "160" }] }
            }
          },
          "dtype": { "type": "DT_FLOAT" }
        }
      },
      {
        "name": "StatefulPartitionedCall/model/mobilenetv2_1.00_160/block_9_depthwise/depthwise_weights",
        "op": "Const",
        "attr": {
          "value": {
            "tensor": {
              "dtype": "DT_FLOAT",
              "tensorShape": {
                "dim": [
                  { "size": "3" },
                  { "size": "3" },
                  { "size": "384" },
                  { "size": "1" }
                ]
              }
            }
          },
          "dtype": { "type": "DT_FLOAT" }
        }
      },
      {
        "name": "StatefulPartitionedCall/model/mobilenetv2_1.00_160/block_9_depthwise/depthwise_bn_offset",
        "op": "Const",
        "attr": {
          "value": {
            "tensor": {
              "dtype": "DT_FLOAT",
              "tensorShape": { "dim": [{ "size": "384" }] }
            }
          },
          "dtype": { "type": "DT_FLOAT" }
        }
      },
      {
        "name": "StatefulPartitionedCall/model/mobilenetv2_1.00_160/block_9_project/Conv2D_weights",
        "op": "Const",
        "attr": {
          "value": {
            "tensor": {
              "dtype": "DT_FLOAT",
              "tensorShape": {
                "dim": [
                  { "size": "1" },
                  { "size": "1" },
                  { "size": "384" },
                  { "size": "64" }
                ]
              }
            }
          },
          "dtype": { "type": "DT_FLOAT" }
        }
      },
      {
        "name": "StatefulPartitionedCall/model/mobilenetv2_1.00_160/block_9_project/Conv2D_bn_offset",
        "op": "Const",
        "attr": {
          "value": {
            "tensor": {
              "dtype": "DT_FLOAT",
              "tensorShape": { "dim": [{ "size": "64" }] }
            }
          },
          "dtype": { "type": "DT_FLOAT" }
        }
      },
      {
        "name": "StatefulPartitionedCall/model/mobilenetv2_1.00_160/block_10_expand/Conv2D_weights",
        "op": "Const",
        "attr": {
          "value": {
            "tensor": {
              "dtype": "DT_FLOAT",
              "tensorShape": {
                "dim": [
                  { "size": "1" },
                  { "size": "1" },
                  { "size": "64" },
                  { "size": "384" }
                ]
              }
            }
          },
          "dtype": { "type": "DT_FLOAT" }
        }
      },
      {
        "name": "StatefulPartitionedCall/model/mobilenetv2_1.00_160/block_10_expand/Conv2D_bn_offset",
        "op": "Const",
        "attr": {
          "value": {
            "tensor": {
              "dtype": "DT_FLOAT",
              "tensorShape": { "dim": [{ "size": "384" }] }
            }
          },
          "dtype": { "type": "DT_FLOAT" }
        }
      },
      {
        "name": "StatefulPartitionedCall/model/mobilenetv2_1.00_160/block_16_expand/Conv2D_weights",
        "op": "Const",
        "attr": {
          "value": {
            "tensor": {
              "dtype": "DT_FLOAT",
              "tensorShape": {
                "dim": [
                  { "size": "1" },
                  { "size": "1" },
                  { "size": "160" },
                  { "size": "960" }
                ]
              }
            }
          },
          "dtype": { "type": "DT_FLOAT" }
        }
      },
      {
        "name": "StatefulPartitionedCall/model/mobilenetv2_1.00_160/block_10_depthwise/depthwise_weights",
        "op": "Const",
        "attr": {
          "value": {
            "tensor": {
              "dtype": "DT_FLOAT",
              "tensorShape": {
                "dim": [
                  { "size": "3" },
                  { "size": "3" },
                  { "size": "384" },
                  { "size": "1" }
                ]
              }
            }
          },
          "dtype": { "type": "DT_FLOAT" }
        }
      },
      {
        "name": "StatefulPartitionedCall/model/mobilenetv2_1.00_160/block_10_depthwise/depthwise_bn_offset",
        "op": "Const",
        "attr": {
          "value": {
            "tensor": {
              "dtype": "DT_FLOAT",
              "tensorShape": { "dim": [{ "size": "384" }] }
            }
          },
          "dtype": { "type": "DT_FLOAT" }
        }
      },
      {
        "name": "StatefulPartitionedCall/model/mobilenetv2_1.00_160/block_10_project/Conv2D_weights",
        "op": "Const",
        "attr": {
          "value": {
            "tensor": {
              "dtype": "DT_FLOAT",
              "tensorShape": {
                "dim": [
                  { "size": "1" },
                  { "size": "1" },
                  { "size": "384" },
                  { "size": "96" }
                ]
              }
            }
          },
          "dtype": { "type": "DT_FLOAT" }
        }
      },
      {
        "name": "StatefulPartitionedCall/model/mobilenetv2_1.00_160/block_10_project/Conv2D_bn_offset",
        "op": "Const",
        "attr": {
          "value": {
            "tensor": {
              "dtype": "DT_FLOAT",
              "tensorShape": { "dim": [{ "size": "96" }] }
            }
          },
          "dtype": { "type": "DT_FLOAT" }
        }
      },
      {
        "name": "StatefulPartitionedCall/model/mobilenetv2_1.00_160/block_11_expand/Conv2D_weights",
        "op": "Const",
        "attr": {
          "value": {
            "tensor": {
              "dtype": "DT_FLOAT",
              "tensorShape": {
                "dim": [
                  { "size": "1" },
                  { "size": "1" },
                  { "size": "96" },
                  { "size": "576" }
                ]
              }
            }
          },
          "dtype": { "type": "DT_FLOAT" }
        }
      },
      {
        "name": "StatefulPartitionedCall/model/mobilenetv2_1.00_160/block_16_expand/Conv2D_bn_offset",
        "op": "Const",
        "attr": {
          "value": {
            "tensor": {
              "dtype": "DT_FLOAT",
              "tensorShape": { "dim": [{ "size": "960" }] }
            }
          },
          "dtype": { "type": "DT_FLOAT" }
        }
      },
      {
        "name": "StatefulPartitionedCall/model/mobilenetv2_1.00_160/block_11_expand/Conv2D_bn_offset",
        "op": "Const",
        "attr": {
          "value": {
            "tensor": {
              "dtype": "DT_FLOAT",
              "tensorShape": { "dim": [{ "size": "576" }] }
            }
          },
          "dtype": { "type": "DT_FLOAT" }
        }
      },
      {
        "name": "StatefulPartitionedCall/model/mobilenetv2_1.00_160/block_11_depthwise/depthwise_weights",
        "op": "Const",
        "attr": {
          "value": {
            "tensor": {
              "dtype": "DT_FLOAT",
              "tensorShape": {
                "dim": [
                  { "size": "3" },
                  { "size": "3" },
                  { "size": "576" },
                  { "size": "1" }
                ]
              }
            }
          },
          "dtype": { "type": "DT_FLOAT" }
        }
      },
      {
        "name": "StatefulPartitionedCall/model/mobilenetv2_1.00_160/block_11_depthwise/depthwise_bn_offset",
        "op": "Const",
        "attr": {
          "value": {
            "tensor": {
              "dtype": "DT_FLOAT",
              "tensorShape": { "dim": [{ "size": "576" }] }
            }
          },
          "dtype": { "type": "DT_FLOAT" }
        }
      },
      {
        "name": "StatefulPartitionedCall/model/mobilenetv2_1.00_160/block_11_project/Conv2D_weights",
        "op": "Const",
        "attr": {
          "value": {
            "tensor": {
              "dtype": "DT_FLOAT",
              "tensorShape": {
                "dim": [
                  { "size": "1" },
                  { "size": "1" },
                  { "size": "576" },
                  { "size": "96" }
                ]
              }
            }
          },
          "dtype": { "type": "DT_FLOAT" }
        }
      },
      {
        "name": "StatefulPartitionedCall/model/mobilenetv2_1.00_160/block_11_project/Conv2D_bn_offset",
        "op": "Const",
        "attr": {
          "value": {
            "tensor": {
              "dtype": "DT_FLOAT",
              "tensorShape": { "dim": [{ "size": "96" }] }
            }
          },
          "dtype": { "type": "DT_FLOAT" }
        }
      },
      {
        "name": "StatefulPartitionedCall/model/mobilenetv2_1.00_160/block_12_expand/Conv2D_weights",
        "op": "Const",
        "attr": {
          "value": {
            "tensor": {
              "dtype": "DT_FLOAT",
              "tensorShape": {
                "dim": [
                  { "size": "1" },
                  { "size": "1" },
                  { "size": "96" },
                  { "size": "576" }
                ]
              }
            }
          },
          "dtype": { "type": "DT_FLOAT" }
        }
      },
      {
        "name": "StatefulPartitionedCall/model/mobilenetv2_1.00_160/block_16_depthwise/depthwise_weights",
        "op": "Const",
        "attr": {
          "value": {
            "tensor": {
              "dtype": "DT_FLOAT",
              "tensorShape": {
                "dim": [
                  { "size": "3" },
                  { "size": "3" },
                  { "size": "960" },
                  { "size": "1" }
                ]
              }
            }
          },
          "dtype": { "type": "DT_FLOAT" }
        }
      },
      {
        "name": "StatefulPartitionedCall/model/mobilenetv2_1.00_160/block_12_expand/Conv2D_bn_offset",
        "op": "Const",
        "attr": {
          "value": {
            "tensor": {
              "dtype": "DT_FLOAT",
              "tensorShape": { "dim": [{ "size": "576" }] }
            }
          },
          "dtype": { "type": "DT_FLOAT" }
        }
      },
      {
        "name": "StatefulPartitionedCall/model/mobilenetv2_1.00_160/block_12_depthwise/depthwise_weights",
        "op": "Const",
        "attr": {
          "value": {
            "tensor": {
              "dtype": "DT_FLOAT",
              "tensorShape": {
                "dim": [
                  { "size": "3" },
                  { "size": "3" },
                  { "size": "576" },
                  { "size": "1" }
                ]
              }
            }
          },
          "dtype": { "type": "DT_FLOAT" }
        }
      },
      {
        "name": "StatefulPartitionedCall/model/mobilenetv2_1.00_160/block_12_depthwise/depthwise_bn_offset",
        "op": "Const",
        "attr": {
          "value": {
            "tensor": {
              "dtype": "DT_FLOAT",
              "tensorShape": { "dim": [{ "size": "576" }] }
            }
          },
          "dtype": { "type": "DT_FLOAT" }
        }
      },
      {
        "name": "StatefulPartitionedCall/model/mobilenetv2_1.00_160/block_12_project/Conv2D_weights",
        "op": "Const",
        "attr": {
          "value": {
            "tensor": {
              "dtype": "DT_FLOAT",
              "tensorShape": {
                "dim": [
                  { "size": "1" },
                  { "size": "1" },
                  { "size": "576" },
                  { "size": "96" }
                ]
              }
            }
          },
          "dtype": { "type": "DT_FLOAT" }
        }
      },
      {
        "name": "StatefulPartitionedCall/model/mobilenetv2_1.00_160/block_16_depthwise/depthwise_bn_offset",
        "op": "Const",
        "attr": {
          "value": {
            "tensor": {
              "dtype": "DT_FLOAT",
              "tensorShape": { "dim": [{ "size": "960" }] }
            }
          },
          "dtype": { "type": "DT_FLOAT" }
        }
      },
      {
        "name": "StatefulPartitionedCall/model/mobilenetv2_1.00_160/block_12_project/Conv2D_bn_offset",
        "op": "Const",
        "attr": {
          "value": {
            "tensor": {
              "dtype": "DT_FLOAT",
              "tensorShape": { "dim": [{ "size": "96" }] }
            }
          },
          "dtype": { "type": "DT_FLOAT" }
        }
      },
      {
        "name": "StatefulPartitionedCall/model/mobilenetv2_1.00_160/block_13_expand/Conv2D_weights",
        "op": "Const",
        "attr": {
          "value": {
            "tensor": {
              "dtype": "DT_FLOAT",
              "tensorShape": {
                "dim": [
                  { "size": "1" },
                  { "size": "1" },
                  { "size": "96" },
                  { "size": "576" }
                ]
              }
            }
          },
          "dtype": { "type": "DT_FLOAT" }
        }
      },
      {
        "name": "StatefulPartitionedCall/model/mobilenetv2_1.00_160/block_13_expand/Conv2D_bn_offset",
        "op": "Const",
        "attr": {
          "value": {
            "tensor": {
              "dtype": "DT_FLOAT",
              "tensorShape": { "dim": [{ "size": "576" }] }
            }
          },
          "dtype": { "type": "DT_FLOAT" }
        }
      },
      {
        "name": "StatefulPartitionedCall/model/mobilenetv2_1.00_160/block_13_depthwise/depthwise_weights",
        "op": "Const",
        "attr": {
          "value": {
            "tensor": {
              "dtype": "DT_FLOAT",
              "tensorShape": {
                "dim": [
                  { "size": "3" },
                  { "size": "3" },
                  { "size": "576" },
                  { "size": "1" }
                ]
              }
            }
          },
          "dtype": { "type": "DT_FLOAT" }
        }
      },
      {
        "name": "StatefulPartitionedCall/model/mobilenetv2_1.00_160/block_13_depthwise/depthwise_bn_offset",
        "op": "Const",
        "attr": {
          "value": {
            "tensor": {
              "dtype": "DT_FLOAT",
              "tensorShape": { "dim": [{ "size": "576" }] }
            }
          },
          "dtype": { "type": "DT_FLOAT" }
        }
      },
      {
        "name": "StatefulPartitionedCall/model/mobilenetv2_1.00_160/block_13_project/Conv2D_weights",
        "op": "Const",
        "attr": {
          "value": {
            "tensor": {
              "dtype": "DT_FLOAT",
              "tensorShape": {
                "dim": [
                  { "size": "1" },
                  { "size": "1" },
                  { "size": "576" },
                  { "size": "160" }
                ]
              }
            }
          },
          "dtype": { "type": "DT_FLOAT" }
        }
      },
      {
        "name": "StatefulPartitionedCall/model/mobilenetv2_1.00_160/block_16_project/Conv2D_weights",
        "op": "Const",
        "attr": {
          "value": {
            "tensor": {
              "dtype": "DT_FLOAT",
              "tensorShape": {
                "dim": [
                  { "size": "1" },
                  { "size": "1" },
                  { "size": "960" },
                  { "size": "320" }
                ]
              }
            }
          },
          "dtype": { "type": "DT_FLOAT" }
        }
      },
      {
        "name": "StatefulPartitionedCall/model/mobilenetv2_1.00_160/block_13_project/Conv2D_bn_offset",
        "op": "Const",
        "attr": {
          "value": {
            "tensor": {
              "dtype": "DT_FLOAT",
              "tensorShape": { "dim": [{ "size": "160" }] }
            }
          },
          "dtype": { "type": "DT_FLOAT" }
        }
      },
      {
        "name": "StatefulPartitionedCall/model/tf.math.truediv/truediv",
        "op": "Mul",
        "input": [
          "input_2",
          "ConstantFolding/StatefulPartitionedCall/model/tf.math.truediv/truediv_recip"
        ],
        "attr": { "T": { "type": "DT_FLOAT" } }
      },
      {
        "name": "StatefulPartitionedCall/model/tf.math.subtract/Sub",
        "op": "Sub",
        "input": [
          "StatefulPartitionedCall/model/tf.math.truediv/truediv",
          "StatefulPartitionedCall/model/tf.math.subtract/Sub/y"
        ],
        "attr": { "T": { "type": "DT_FLOAT" } }
      },
      {
        "name": "StatefulPartitionedCall/model/mobilenetv2_1.00_160/Conv1_relu/Relu6",
        "op": "_FusedConv2D",
        "input": [
          "StatefulPartitionedCall/model/tf.math.subtract/Sub",
          "StatefulPartitionedCall/model/mobilenetv2_1.00_160/Conv1/Conv2D_weights",
          "StatefulPartitionedCall/model/mobilenetv2_1.00_160/Conv1/Conv2D_bn_offset"
        ],
        "device": "/device:CPU:0",
        "attr": {
          "num_host_args": { "i": "0" },
          "data_format": { "s": "TkhXQw==" },
          "filter_format": { "s": "SFdJTw==" },
          "strides": { "list": { "i": ["1", "2", "2", "1"] } },
          "num_args": { "i": "1" },
          "fused_ops": { "list": { "s": ["Qmlhc0FkZA==", "UmVsdTY="] } },
          "TArgs": { "list": { "type": ["DT_FLOAT"] } },
          "padding": { "s": "U0FNRQ==" },
          "use_cudnn_on_gpu": { "b": true },
          "leakyrelu_alpha": { "f": 0.2 },
          "epsilon": { "f": 0.0 },
          "T": { "type": "DT_FLOAT" },
          "explicit_paddings": { "list": {} },
          "dilations": { "list": { "i": ["1", "1", "1", "1"] } }
        }
      },
      {
        "name": "StatefulPartitionedCall/model/mobilenetv2_1.00_160/expanded_conv_depthwise/depthwise",
        "op": "FusedDepthwiseConv2dNative",
        "input": [
          "StatefulPartitionedCall/model/mobilenetv2_1.00_160/Conv1_relu/Relu6",
          "StatefulPartitionedCall/model/mobilenetv2_1.00_160/expanded_conv_depthwise/depthwise_weights",
          "StatefulPartitionedCall/model/mobilenetv2_1.00_160/expanded_conv_depthwise/depthwise_bn_offset"
        ],
        "attr": {
          "padding": { "s": "U0FNRQ==" },
          "data_format": { "s": "TkhXQw==" },
          "strides": { "list": { "i": ["1", "1", "1", "1"] } },
          "num_args": { "i": "1" },
          "fused_ops": { "list": { "s": ["Qmlhc0FkZA==", "UmVsdTY="] } },
          "T": { "type": "DT_FLOAT" },
          "explicit_paddings": { "list": {} },
          "dilations": { "list": { "i": ["1", "1", "1", "1"] } }
        }
      },
      {
        "name": "StatefulPartitionedCall/model/mobilenetv2_1.00_160/expanded_conv_project_BN/FusedBatchNormV3",
        "op": "_FusedConv2D",
        "input": [
          "StatefulPartitionedCall/model/mobilenetv2_1.00_160/expanded_conv_depthwise/depthwise",
          "StatefulPartitionedCall/model/mobilenetv2_1.00_160/expanded_conv_project/Conv2D_weights",
          "StatefulPartitionedCall/model/mobilenetv2_1.00_160/expanded_conv_project/Conv2D_bn_offset"
        ],
        "device": "/device:CPU:0",
        "attr": {
          "num_host_args": { "i": "0" },
          "data_format": { "s": "TkhXQw==" },
          "filter_format": { "s": "SFdJTw==" },
          "strides": { "list": { "i": ["1", "1", "1", "1"] } },
          "num_args": { "i": "1" },
          "fused_ops": { "list": { "s": ["Qmlhc0FkZA=="] } },
          "TArgs": { "list": { "type": ["DT_FLOAT"] } },
          "padding": { "s": "U0FNRQ==" },
          "use_cudnn_on_gpu": { "b": true },
          "leakyrelu_alpha": { "f": 0.2 },
          "epsilon": { "f": 0.0 },
          "T": { "type": "DT_FLOAT" },
          "explicit_paddings": { "list": {} },
          "dilations": { "list": { "i": ["1", "1", "1", "1"] } }
        }
      },
      {
        "name": "StatefulPartitionedCall/model/mobilenetv2_1.00_160/block_1_expand_relu/Relu6",
        "op": "_FusedConv2D",
        "input": [
          "StatefulPartitionedCall/model/mobilenetv2_1.00_160/expanded_conv_project_BN/FusedBatchNormV3",
          "StatefulPartitionedCall/model/mobilenetv2_1.00_160/block_1_expand/Conv2D_weights",
          "StatefulPartitionedCall/model/mobilenetv2_1.00_160/block_1_expand/Conv2D_bn_offset"
        ],
        "device": "/device:CPU:0",
        "attr": {
          "num_host_args": { "i": "0" },
          "data_format": { "s": "TkhXQw==" },
          "filter_format": { "s": "SFdJTw==" },
          "strides": { "list": { "i": ["1", "1", "1", "1"] } },
          "num_args": { "i": "1" },
          "fused_ops": { "list": { "s": ["Qmlhc0FkZA==", "UmVsdTY="] } },
          "TArgs": { "list": { "type": ["DT_FLOAT"] } },
          "padding": { "s": "U0FNRQ==" },
          "use_cudnn_on_gpu": { "b": true },
          "leakyrelu_alpha": { "f": 0.2 },
          "epsilon": { "f": 0.0 },
          "T": { "type": "DT_FLOAT" },
          "explicit_paddings": { "list": {} },
          "dilations": { "list": { "i": ["1", "1", "1", "1"] } }
        }
      },
      {
        "name": "StatefulPartitionedCall/model/mobilenetv2_1.00_160/block_1_pad/Pad",
        "op": "Pad",
        "input": [
          "StatefulPartitionedCall/model/mobilenetv2_1.00_160/block_1_expand_relu/Relu6",
          "StatefulPartitionedCall/model/mobilenetv2_1.00_160/block_1_pad/Pad/paddings"
        ],
        "attr": {
          "Tpaddings": { "type": "DT_INT32" },
          "T": { "type": "DT_FLOAT" }
        }
      },
      {
        "name": "StatefulPartitionedCall/model/mobilenetv2_1.00_160/block_1_depthwise/depthwise",
        "op": "FusedDepthwiseConv2dNative",
        "input": [
          "StatefulPartitionedCall/model/mobilenetv2_1.00_160/block_1_pad/Pad",
          "StatefulPartitionedCall/model/mobilenetv2_1.00_160/block_1_depthwise/depthwise_weights",
          "StatefulPartitionedCall/model/mobilenetv2_1.00_160/block_1_depthwise/depthwise_bn_offset"
        ],
        "attr": {
          "padding": { "s": "VkFMSUQ=" },
          "data_format": { "s": "TkhXQw==" },
          "strides": { "list": { "i": ["1", "2", "2", "1"] } },
          "num_args": { "i": "1" },
          "fused_ops": { "list": { "s": ["Qmlhc0FkZA==", "UmVsdTY="] } },
          "T": { "type": "DT_FLOAT" },
          "explicit_paddings": { "list": {} },
          "dilations": { "list": { "i": ["1", "1", "1", "1"] } }
        }
      },
      {
        "name": "StatefulPartitionedCall/model/mobilenetv2_1.00_160/block_1_project_BN/FusedBatchNormV3",
        "op": "_FusedConv2D",
        "input": [
          "StatefulPartitionedCall/model/mobilenetv2_1.00_160/block_1_depthwise/depthwise",
          "StatefulPartitionedCall/model/mobilenetv2_1.00_160/block_1_project/Conv2D_weights",
          "StatefulPartitionedCall/model/mobilenetv2_1.00_160/block_1_project/Conv2D_bn_offset"
        ],
        "device": "/device:CPU:0",
        "attr": {
          "num_host_args": { "i": "0" },
          "data_format": { "s": "TkhXQw==" },
          "filter_format": { "s": "SFdJTw==" },
          "fused_ops": { "list": { "s": ["Qmlhc0FkZA=="] } },
          "num_args": { "i": "1" },
          "strides": { "list": { "i": ["1", "1", "1", "1"] } },
          "TArgs": { "list": { "type": ["DT_FLOAT"] } },
          "padding": { "s": "U0FNRQ==" },
          "use_cudnn_on_gpu": { "b": true },
          "leakyrelu_alpha": { "f": 0.2 },
          "epsilon": { "f": 0.0 },
          "T": { "type": "DT_FLOAT" },
          "explicit_paddings": { "list": {} },
          "dilations": { "list": { "i": ["1", "1", "1", "1"] } }
        }
      },
      {
        "name": "StatefulPartitionedCall/model/mobilenetv2_1.00_160/block_2_expand_relu/Relu6",
        "op": "_FusedConv2D",
        "input": [
          "StatefulPartitionedCall/model/mobilenetv2_1.00_160/block_1_project_BN/FusedBatchNormV3",
          "StatefulPartitionedCall/model/mobilenetv2_1.00_160/block_2_expand/Conv2D_weights",
          "StatefulPartitionedCall/model/mobilenetv2_1.00_160/block_2_expand/Conv2D_bn_offset"
        ],
        "device": "/device:CPU:0",
        "attr": {
          "num_host_args": { "i": "0" },
          "data_format": { "s": "TkhXQw==" },
          "filter_format": { "s": "SFdJTw==" },
          "fused_ops": { "list": { "s": ["Qmlhc0FkZA==", "UmVsdTY="] } },
          "num_args": { "i": "1" },
          "strides": { "list": { "i": ["1", "1", "1", "1"] } },
          "TArgs": { "list": { "type": ["DT_FLOAT"] } },
          "padding": { "s": "U0FNRQ==" },
          "use_cudnn_on_gpu": { "b": true },
          "leakyrelu_alpha": { "f": 0.2 },
          "epsilon": { "f": 0.0 },
          "T": { "type": "DT_FLOAT" },
          "explicit_paddings": { "list": {} },
          "dilations": { "list": { "i": ["1", "1", "1", "1"] } }
        }
      },
      {
        "name": "StatefulPartitionedCall/model/mobilenetv2_1.00_160/block_2_depthwise/depthwise",
        "op": "FusedDepthwiseConv2dNative",
        "input": [
          "StatefulPartitionedCall/model/mobilenetv2_1.00_160/block_2_expand_relu/Relu6",
          "StatefulPartitionedCall/model/mobilenetv2_1.00_160/block_2_depthwise/depthwise_weights",
          "StatefulPartitionedCall/model/mobilenetv2_1.00_160/block_2_depthwise/depthwise_bn_offset"
        ],
        "attr": {
          "padding": { "s": "U0FNRQ==" },
          "data_format": { "s": "TkhXQw==" },
          "strides": { "list": { "i": ["1", "1", "1", "1"] } },
          "num_args": { "i": "1" },
          "fused_ops": { "list": { "s": ["Qmlhc0FkZA==", "UmVsdTY="] } },
          "T": { "type": "DT_FLOAT" },
          "explicit_paddings": { "list": {} },
          "dilations": { "list": { "i": ["1", "1", "1", "1"] } }
        }
      },
      {
        "name": "StatefulPartitionedCall/model/mobilenetv2_1.00_160/block_2_project_BN/FusedBatchNormV3",
        "op": "_FusedConv2D",
        "input": [
          "StatefulPartitionedCall/model/mobilenetv2_1.00_160/block_2_depthwise/depthwise",
          "StatefulPartitionedCall/model/mobilenetv2_1.00_160/block_2_project/Conv2D_weights",
          "StatefulPartitionedCall/model/mobilenetv2_1.00_160/block_2_project/Conv2D_bn_offset"
        ],
        "device": "/device:CPU:0",
        "attr": {
          "num_host_args": { "i": "0" },
          "data_format": { "s": "TkhXQw==" },
          "filter_format": { "s": "SFdJTw==" },
          "strides": { "list": { "i": ["1", "1", "1", "1"] } },
          "num_args": { "i": "1" },
          "fused_ops": { "list": { "s": ["Qmlhc0FkZA=="] } },
          "TArgs": { "list": { "type": ["DT_FLOAT"] } },
          "padding": { "s": "U0FNRQ==" },
          "use_cudnn_on_gpu": { "b": true },
          "leakyrelu_alpha": { "f": 0.2 },
          "epsilon": { "f": 0.0 },
          "T": { "type": "DT_FLOAT" },
          "explicit_paddings": { "list": {} },
          "dilations": { "list": { "i": ["1", "1", "1", "1"] } }
        }
      },
      {
        "name": "StatefulPartitionedCall/model/mobilenetv2_1.00_160/block_2_add/add",
        "op": "AddV2",
        "input": [
          "StatefulPartitionedCall/model/mobilenetv2_1.00_160/block_1_project_BN/FusedBatchNormV3",
          "StatefulPartitionedCall/model/mobilenetv2_1.00_160/block_2_project_BN/FusedBatchNormV3"
        ],
        "attr": { "T": { "type": "DT_FLOAT" } }
      },
      {
        "name": "StatefulPartitionedCall/model/mobilenetv2_1.00_160/block_3_expand_relu/Relu6",
        "op": "_FusedConv2D",
        "input": [
          "StatefulPartitionedCall/model/mobilenetv2_1.00_160/block_2_add/add",
          "StatefulPartitionedCall/model/mobilenetv2_1.00_160/block_3_expand/Conv2D_weights",
          "StatefulPartitionedCall/model/mobilenetv2_1.00_160/block_3_expand/Conv2D_bn_offset"
        ],
        "device": "/device:CPU:0",
        "attr": {
          "num_host_args": { "i": "0" },
          "data_format": { "s": "TkhXQw==" },
          "filter_format": { "s": "SFdJTw==" },
          "fused_ops": { "list": { "s": ["Qmlhc0FkZA==", "UmVsdTY="] } },
          "num_args": { "i": "1" },
          "strides": { "list": { "i": ["1", "1", "1", "1"] } },
          "TArgs": { "list": { "type": ["DT_FLOAT"] } },
          "padding": { "s": "U0FNRQ==" },
          "use_cudnn_on_gpu": { "b": true },
          "leakyrelu_alpha": { "f": 0.2 },
          "epsilon": { "f": 0.0 },
          "T": { "type": "DT_FLOAT" },
          "explicit_paddings": { "list": {} },
          "dilations": { "list": { "i": ["1", "1", "1", "1"] } }
        }
      },
      {
        "name": "StatefulPartitionedCall/model/mobilenetv2_1.00_160/block_3_pad/Pad",
        "op": "Pad",
        "input": [
          "StatefulPartitionedCall/model/mobilenetv2_1.00_160/block_3_expand_relu/Relu6",
          "StatefulPartitionedCall/model/mobilenetv2_1.00_160/block_3_pad/Pad/paddings"
        ],
        "attr": {
          "Tpaddings": { "type": "DT_INT32" },
          "T": { "type": "DT_FLOAT" }
        }
      },
      {
        "name": "StatefulPartitionedCall/model/mobilenetv2_1.00_160/block_3_depthwise/depthwise",
        "op": "FusedDepthwiseConv2dNative",
        "input": [
          "StatefulPartitionedCall/model/mobilenetv2_1.00_160/block_3_pad/Pad",
          "StatefulPartitionedCall/model/mobilenetv2_1.00_160/block_3_depthwise/depthwise_weights",
          "StatefulPartitionedCall/model/mobilenetv2_1.00_160/block_3_depthwise/depthwise_bn_offset"
        ],
        "attr": {
          "padding": { "s": "VkFMSUQ=" },
          "data_format": { "s": "TkhXQw==" },
          "strides": { "list": { "i": ["1", "2", "2", "1"] } },
          "num_args": { "i": "1" },
          "fused_ops": { "list": { "s": ["Qmlhc0FkZA==", "UmVsdTY="] } },
          "T": { "type": "DT_FLOAT" },
          "explicit_paddings": { "list": {} },
          "dilations": { "list": { "i": ["1", "1", "1", "1"] } }
        }
      },
      {
        "name": "StatefulPartitionedCall/model/mobilenetv2_1.00_160/block_3_project_BN/FusedBatchNormV3",
        "op": "_FusedConv2D",
        "input": [
          "StatefulPartitionedCall/model/mobilenetv2_1.00_160/block_3_depthwise/depthwise",
          "StatefulPartitionedCall/model/mobilenetv2_1.00_160/block_3_project/Conv2D_weights",
          "StatefulPartitionedCall/model/mobilenetv2_1.00_160/block_3_project/Conv2D_bn_offset"
        ],
        "device": "/device:CPU:0",
        "attr": {
          "num_host_args": { "i": "0" },
          "data_format": { "s": "TkhXQw==" },
          "filter_format": { "s": "SFdJTw==" },
          "strides": { "list": { "i": ["1", "1", "1", "1"] } },
          "num_args": { "i": "1" },
          "fused_ops": { "list": { "s": ["Qmlhc0FkZA=="] } },
          "TArgs": { "list": { "type": ["DT_FLOAT"] } },
          "padding": { "s": "U0FNRQ==" },
          "use_cudnn_on_gpu": { "b": true },
          "leakyrelu_alpha": { "f": 0.2 },
          "epsilon": { "f": 0.0 },
          "T": { "type": "DT_FLOAT" },
          "explicit_paddings": { "list": {} },
          "dilations": { "list": { "i": ["1", "1", "1", "1"] } }
        }
      },
      {
        "name": "StatefulPartitionedCall/model/mobilenetv2_1.00_160/block_4_expand_relu/Relu6",
        "op": "_FusedConv2D",
        "input": [
          "StatefulPartitionedCall/model/mobilenetv2_1.00_160/block_3_project_BN/FusedBatchNormV3",
          "StatefulPartitionedCall/model/mobilenetv2_1.00_160/block_4_expand/Conv2D_weights",
          "StatefulPartitionedCall/model/mobilenetv2_1.00_160/block_4_expand/Conv2D_bn_offset"
        ],
        "device": "/device:CPU:0",
        "attr": {
          "num_host_args": { "i": "0" },
          "data_format": { "s": "TkhXQw==" },
          "filter_format": { "s": "SFdJTw==" },
          "fused_ops": { "list": { "s": ["Qmlhc0FkZA==", "UmVsdTY="] } },
          "num_args": { "i": "1" },
          "strides": { "list": { "i": ["1", "1", "1", "1"] } },
          "TArgs": { "list": { "type": ["DT_FLOAT"] } },
          "padding": { "s": "U0FNRQ==" },
          "use_cudnn_on_gpu": { "b": true },
          "leakyrelu_alpha": { "f": 0.2 },
          "epsilon": { "f": 0.0 },
          "T": { "type": "DT_FLOAT" },
          "explicit_paddings": { "list": {} },
          "dilations": { "list": { "i": ["1", "1", "1", "1"] } }
        }
      },
      {
        "name": "StatefulPartitionedCall/model/mobilenetv2_1.00_160/block_4_depthwise/depthwise",
        "op": "FusedDepthwiseConv2dNative",
        "input": [
          "StatefulPartitionedCall/model/mobilenetv2_1.00_160/block_4_expand_relu/Relu6",
          "StatefulPartitionedCall/model/mobilenetv2_1.00_160/block_4_depthwise/depthwise_weights",
          "StatefulPartitionedCall/model/mobilenetv2_1.00_160/block_4_depthwise/depthwise_bn_offset"
        ],
        "attr": {
          "padding": { "s": "U0FNRQ==" },
          "data_format": { "s": "TkhXQw==" },
          "strides": { "list": { "i": ["1", "1", "1", "1"] } },
          "num_args": { "i": "1" },
          "fused_ops": { "list": { "s": ["Qmlhc0FkZA==", "UmVsdTY="] } },
          "T": { "type": "DT_FLOAT" },
          "explicit_paddings": { "list": {} },
          "dilations": { "list": { "i": ["1", "1", "1", "1"] } }
        }
      },
      {
        "name": "StatefulPartitionedCall/model/mobilenetv2_1.00_160/block_4_project_BN/FusedBatchNormV3",
        "op": "_FusedConv2D",
        "input": [
          "StatefulPartitionedCall/model/mobilenetv2_1.00_160/block_4_depthwise/depthwise",
          "StatefulPartitionedCall/model/mobilenetv2_1.00_160/block_4_project/Conv2D_weights",
          "StatefulPartitionedCall/model/mobilenetv2_1.00_160/block_4_project/Conv2D_bn_offset"
        ],
        "device": "/device:CPU:0",
        "attr": {
          "num_host_args": { "i": "0" },
          "data_format": { "s": "TkhXQw==" },
          "filter_format": { "s": "SFdJTw==" },
          "strides": { "list": { "i": ["1", "1", "1", "1"] } },
          "num_args": { "i": "1" },
          "fused_ops": { "list": { "s": ["Qmlhc0FkZA=="] } },
          "TArgs": { "list": { "type": ["DT_FLOAT"] } },
          "padding": { "s": "U0FNRQ==" },
          "use_cudnn_on_gpu": { "b": true },
          "leakyrelu_alpha": { "f": 0.2 },
          "epsilon": { "f": 0.0 },
          "T": { "type": "DT_FLOAT" },
          "explicit_paddings": { "list": {} },
          "dilations": { "list": { "i": ["1", "1", "1", "1"] } }
        }
      },
      {
        "name": "StatefulPartitionedCall/model/mobilenetv2_1.00_160/block_4_add/add",
        "op": "AddV2",
        "input": [
          "StatefulPartitionedCall/model/mobilenetv2_1.00_160/block_3_project_BN/FusedBatchNormV3",
          "StatefulPartitionedCall/model/mobilenetv2_1.00_160/block_4_project_BN/FusedBatchNormV3"
        ],
        "attr": { "T": { "type": "DT_FLOAT" } }
      },
      {
        "name": "StatefulPartitionedCall/model/mobilenetv2_1.00_160/block_5_expand_relu/Relu6",
        "op": "_FusedConv2D",
        "input": [
          "StatefulPartitionedCall/model/mobilenetv2_1.00_160/block_4_add/add",
          "StatefulPartitionedCall/model/mobilenetv2_1.00_160/block_5_expand/Conv2D_weights",
          "StatefulPartitionedCall/model/mobilenetv2_1.00_160/block_5_expand/Conv2D_bn_offset"
        ],
        "device": "/device:CPU:0",
        "attr": {
          "num_host_args": { "i": "0" },
          "data_format": { "s": "TkhXQw==" },
          "filter_format": { "s": "SFdJTw==" },
          "strides": { "list": { "i": ["1", "1", "1", "1"] } },
          "num_args": { "i": "1" },
          "fused_ops": { "list": { "s": ["Qmlhc0FkZA==", "UmVsdTY="] } },
          "TArgs": { "list": { "type": ["DT_FLOAT"] } },
          "padding": { "s": "U0FNRQ==" },
          "use_cudnn_on_gpu": { "b": true },
          "leakyrelu_alpha": { "f": 0.2 },
          "epsilon": { "f": 0.0 },
          "T": { "type": "DT_FLOAT" },
          "explicit_paddings": { "list": {} },
          "dilations": { "list": { "i": ["1", "1", "1", "1"] } }
        }
      },
      {
        "name": "StatefulPartitionedCall/model/mobilenetv2_1.00_160/block_5_depthwise/depthwise",
        "op": "FusedDepthwiseConv2dNative",
        "input": [
          "StatefulPartitionedCall/model/mobilenetv2_1.00_160/block_5_expand_relu/Relu6",
          "StatefulPartitionedCall/model/mobilenetv2_1.00_160/block_5_depthwise/depthwise_weights",
          "StatefulPartitionedCall/model/mobilenetv2_1.00_160/block_5_depthwise/depthwise_bn_offset"
        ],
        "attr": {
          "padding": { "s": "U0FNRQ==" },
          "data_format": { "s": "TkhXQw==" },
          "strides": { "list": { "i": ["1", "1", "1", "1"] } },
          "num_args": { "i": "1" },
          "fused_ops": { "list": { "s": ["Qmlhc0FkZA==", "UmVsdTY="] } },
          "T": { "type": "DT_FLOAT" },
          "explicit_paddings": { "list": {} },
          "dilations": { "list": { "i": ["1", "1", "1", "1"] } }
        }
      },
      {
        "name": "StatefulPartitionedCall/model/mobilenetv2_1.00_160/block_5_project_BN/FusedBatchNormV3",
        "op": "_FusedConv2D",
        "input": [
          "StatefulPartitionedCall/model/mobilenetv2_1.00_160/block_5_depthwise/depthwise",
          "StatefulPartitionedCall/model/mobilenetv2_1.00_160/block_5_project/Conv2D_weights",
          "StatefulPartitionedCall/model/mobilenetv2_1.00_160/block_5_project/Conv2D_bn_offset"
        ],
        "device": "/device:CPU:0",
        "attr": {
          "num_host_args": { "i": "0" },
          "data_format": { "s": "TkhXQw==" },
          "filter_format": { "s": "SFdJTw==" },
          "fused_ops": { "list": { "s": ["Qmlhc0FkZA=="] } },
          "num_args": { "i": "1" },
          "strides": { "list": { "i": ["1", "1", "1", "1"] } },
          "TArgs": { "list": { "type": ["DT_FLOAT"] } },
          "padding": { "s": "U0FNRQ==" },
          "use_cudnn_on_gpu": { "b": true },
          "leakyrelu_alpha": { "f": 0.2 },
          "epsilon": { "f": 0.0 },
          "T": { "type": "DT_FLOAT" },
          "explicit_paddings": { "list": {} },
          "dilations": { "list": { "i": ["1", "1", "1", "1"] } }
        }
      },
      {
        "name": "StatefulPartitionedCall/model/mobilenetv2_1.00_160/block_5_add/add",
        "op": "AddV2",
        "input": [
          "StatefulPartitionedCall/model/mobilenetv2_1.00_160/block_4_add/add",
          "StatefulPartitionedCall/model/mobilenetv2_1.00_160/block_5_project_BN/FusedBatchNormV3"
        ],
        "attr": { "T": { "type": "DT_FLOAT" } }
      },
      {
        "name": "StatefulPartitionedCall/model/mobilenetv2_1.00_160/block_6_expand_relu/Relu6",
        "op": "_FusedConv2D",
        "input": [
          "StatefulPartitionedCall/model/mobilenetv2_1.00_160/block_5_add/add",
          "StatefulPartitionedCall/model/mobilenetv2_1.00_160/block_6_expand/Conv2D_weights",
          "StatefulPartitionedCall/model/mobilenetv2_1.00_160/block_6_expand/Conv2D_bn_offset"
        ],
        "device": "/device:CPU:0",
        "attr": {
          "num_host_args": { "i": "0" },
          "data_format": { "s": "TkhXQw==" },
          "filter_format": { "s": "SFdJTw==" },
          "fused_ops": { "list": { "s": ["Qmlhc0FkZA==", "UmVsdTY="] } },
          "num_args": { "i": "1" },
          "strides": { "list": { "i": ["1", "1", "1", "1"] } },
          "TArgs": { "list": { "type": ["DT_FLOAT"] } },
          "padding": { "s": "U0FNRQ==" },
          "use_cudnn_on_gpu": { "b": true },
          "leakyrelu_alpha": { "f": 0.2 },
          "epsilon": { "f": 0.0 },
          "T": { "type": "DT_FLOAT" },
          "explicit_paddings": { "list": {} },
          "dilations": { "list": { "i": ["1", "1", "1", "1"] } }
        }
      },
      {
        "name": "StatefulPartitionedCall/model/mobilenetv2_1.00_160/block_6_pad/Pad",
        "op": "Pad",
        "input": [
          "StatefulPartitionedCall/model/mobilenetv2_1.00_160/block_6_expand_relu/Relu6",
          "StatefulPartitionedCall/model/mobilenetv2_1.00_160/block_6_pad/Pad/paddings"
        ],
        "attr": {
          "Tpaddings": { "type": "DT_INT32" },
          "T": { "type": "DT_FLOAT" }
        }
      },
      {
        "name": "StatefulPartitionedCall/model/mobilenetv2_1.00_160/block_6_depthwise/depthwise",
        "op": "FusedDepthwiseConv2dNative",
        "input": [
          "StatefulPartitionedCall/model/mobilenetv2_1.00_160/block_6_pad/Pad",
          "StatefulPartitionedCall/model/mobilenetv2_1.00_160/block_6_depthwise/depthwise_weights",
          "StatefulPartitionedCall/model/mobilenetv2_1.00_160/block_6_depthwise/depthwise_bn_offset"
        ],
        "attr": {
          "padding": { "s": "VkFMSUQ=" },
          "data_format": { "s": "TkhXQw==" },
          "strides": { "list": { "i": ["1", "2", "2", "1"] } },
          "num_args": { "i": "1" },
          "fused_ops": { "list": { "s": ["Qmlhc0FkZA==", "UmVsdTY="] } },
          "T": { "type": "DT_FLOAT" },
          "explicit_paddings": { "list": {} },
          "dilations": { "list": { "i": ["1", "1", "1", "1"] } }
        }
      },
      {
        "name": "StatefulPartitionedCall/model/mobilenetv2_1.00_160/block_6_project_BN/FusedBatchNormV3",
        "op": "_FusedConv2D",
        "input": [
          "StatefulPartitionedCall/model/mobilenetv2_1.00_160/block_6_depthwise/depthwise",
          "StatefulPartitionedCall/model/mobilenetv2_1.00_160/block_6_project/Conv2D_weights",
          "StatefulPartitionedCall/model/mobilenetv2_1.00_160/block_6_project/Conv2D_bn_offset"
        ],
        "device": "/device:CPU:0",
        "attr": {
          "num_host_args": { "i": "0" },
          "data_format": { "s": "TkhXQw==" },
          "filter_format": { "s": "SFdJTw==" },
          "strides": { "list": { "i": ["1", "1", "1", "1"] } },
          "num_args": { "i": "1" },
          "fused_ops": { "list": { "s": ["Qmlhc0FkZA=="] } },
          "TArgs": { "list": { "type": ["DT_FLOAT"] } },
          "padding": { "s": "U0FNRQ==" },
          "use_cudnn_on_gpu": { "b": true },
          "leakyrelu_alpha": { "f": 0.2 },
          "epsilon": { "f": 0.0 },
          "T": { "type": "DT_FLOAT" },
          "explicit_paddings": { "list": {} },
          "dilations": { "list": { "i": ["1", "1", "1", "1"] } }
        }
      },
      {
        "name": "StatefulPartitionedCall/model/mobilenetv2_1.00_160/block_7_expand_relu/Relu6",
        "op": "_FusedConv2D",
        "input": [
          "StatefulPartitionedCall/model/mobilenetv2_1.00_160/block_6_project_BN/FusedBatchNormV3",
          "StatefulPartitionedCall/model/mobilenetv2_1.00_160/block_7_expand/Conv2D_weights",
          "StatefulPartitionedCall/model/mobilenetv2_1.00_160/block_7_expand/Conv2D_bn_offset"
        ],
        "device": "/device:CPU:0",
        "attr": {
          "num_host_args": { "i": "0" },
          "data_format": { "s": "TkhXQw==" },
          "filter_format": { "s": "SFdJTw==" },
          "fused_ops": { "list": { "s": ["Qmlhc0FkZA==", "UmVsdTY="] } },
          "num_args": { "i": "1" },
          "strides": { "list": { "i": ["1", "1", "1", "1"] } },
          "TArgs": { "list": { "type": ["DT_FLOAT"] } },
          "padding": { "s": "U0FNRQ==" },
          "use_cudnn_on_gpu": { "b": true },
          "leakyrelu_alpha": { "f": 0.2 },
          "epsilon": { "f": 0.0 },
          "T": { "type": "DT_FLOAT" },
          "explicit_paddings": { "list": {} },
          "dilations": { "list": { "i": ["1", "1", "1", "1"] } }
        }
      },
      {
        "name": "StatefulPartitionedCall/model/mobilenetv2_1.00_160/block_7_depthwise/depthwise",
        "op": "FusedDepthwiseConv2dNative",
        "input": [
          "StatefulPartitionedCall/model/mobilenetv2_1.00_160/block_7_expand_relu/Relu6",
          "StatefulPartitionedCall/model/mobilenetv2_1.00_160/block_7_depthwise/depthwise_weights",
          "StatefulPartitionedCall/model/mobilenetv2_1.00_160/block_7_depthwise/depthwise_bn_offset"
        ],
        "attr": {
          "padding": { "s": "U0FNRQ==" },
          "data_format": { "s": "TkhXQw==" },
          "strides": { "list": { "i": ["1", "1", "1", "1"] } },
          "num_args": { "i": "1" },
          "fused_ops": { "list": { "s": ["Qmlhc0FkZA==", "UmVsdTY="] } },
          "T": { "type": "DT_FLOAT" },
          "explicit_paddings": { "list": {} },
          "dilations": { "list": { "i": ["1", "1", "1", "1"] } }
        }
      },
      {
        "name": "StatefulPartitionedCall/model/mobilenetv2_1.00_160/block_7_project_BN/FusedBatchNormV3",
        "op": "_FusedConv2D",
        "input": [
          "StatefulPartitionedCall/model/mobilenetv2_1.00_160/block_7_depthwise/depthwise",
          "StatefulPartitionedCall/model/mobilenetv2_1.00_160/block_7_project/Conv2D_weights",
          "StatefulPartitionedCall/model/mobilenetv2_1.00_160/block_7_project/Conv2D_bn_offset"
        ],
        "device": "/device:CPU:0",
        "attr": {
          "num_host_args": { "i": "0" },
          "data_format": { "s": "TkhXQw==" },
          "filter_format": { "s": "SFdJTw==" },
          "strides": { "list": { "i": ["1", "1", "1", "1"] } },
          "num_args": { "i": "1" },
          "fused_ops": { "list": { "s": ["Qmlhc0FkZA=="] } },
          "TArgs": { "list": { "type": ["DT_FLOAT"] } },
          "padding": { "s": "U0FNRQ==" },
          "use_cudnn_on_gpu": { "b": true },
          "leakyrelu_alpha": { "f": 0.2 },
          "epsilon": { "f": 0.0 },
          "T": { "type": "DT_FLOAT" },
          "explicit_paddings": { "list": {} },
          "dilations": { "list": { "i": ["1", "1", "1", "1"] } }
        }
      },
      {
        "name": "StatefulPartitionedCall/model/mobilenetv2_1.00_160/block_7_add/add",
        "op": "AddV2",
        "input": [
          "StatefulPartitionedCall/model/mobilenetv2_1.00_160/block_6_project_BN/FusedBatchNormV3",
          "StatefulPartitionedCall/model/mobilenetv2_1.00_160/block_7_project_BN/FusedBatchNormV3"
        ],
        "attr": { "T": { "type": "DT_FLOAT" } }
      },
      {
        "name": "StatefulPartitionedCall/model/mobilenetv2_1.00_160/block_8_expand_relu/Relu6",
        "op": "_FusedConv2D",
        "input": [
          "StatefulPartitionedCall/model/mobilenetv2_1.00_160/block_7_add/add",
          "StatefulPartitionedCall/model/mobilenetv2_1.00_160/block_8_expand/Conv2D_weights",
          "StatefulPartitionedCall/model/mobilenetv2_1.00_160/block_8_expand/Conv2D_bn_offset"
        ],
        "device": "/device:CPU:0",
        "attr": {
          "num_host_args": { "i": "0" },
          "data_format": { "s": "TkhXQw==" },
          "filter_format": { "s": "SFdJTw==" },
          "fused_ops": { "list": { "s": ["Qmlhc0FkZA==", "UmVsdTY="] } },
          "num_args": { "i": "1" },
          "strides": { "list": { "i": ["1", "1", "1", "1"] } },
          "TArgs": { "list": { "type": ["DT_FLOAT"] } },
          "padding": { "s": "U0FNRQ==" },
          "use_cudnn_on_gpu": { "b": true },
          "leakyrelu_alpha": { "f": 0.2 },
          "epsilon": { "f": 0.0 },
          "T": { "type": "DT_FLOAT" },
          "explicit_paddings": { "list": {} },
          "dilations": { "list": { "i": ["1", "1", "1", "1"] } }
        }
      },
      {
        "name": "StatefulPartitionedCall/model/mobilenetv2_1.00_160/block_8_depthwise/depthwise",
        "op": "FusedDepthwiseConv2dNative",
        "input": [
          "StatefulPartitionedCall/model/mobilenetv2_1.00_160/block_8_expand_relu/Relu6",
          "StatefulPartitionedCall/model/mobilenetv2_1.00_160/block_8_depthwise/depthwise_weights",
          "StatefulPartitionedCall/model/mobilenetv2_1.00_160/block_8_depthwise/depthwise_bn_offset"
        ],
        "attr": {
          "padding": { "s": "U0FNRQ==" },
          "data_format": { "s": "TkhXQw==" },
          "strides": { "list": { "i": ["1", "1", "1", "1"] } },
          "num_args": { "i": "1" },
          "fused_ops": { "list": { "s": ["Qmlhc0FkZA==", "UmVsdTY="] } },
          "T": { "type": "DT_FLOAT" },
          "explicit_paddings": { "list": {} },
          "dilations": { "list": { "i": ["1", "1", "1", "1"] } }
        }
      },
      {
        "name": "StatefulPartitionedCall/model/mobilenetv2_1.00_160/block_8_project_BN/FusedBatchNormV3",
        "op": "_FusedConv2D",
        "input": [
          "StatefulPartitionedCall/model/mobilenetv2_1.00_160/block_8_depthwise/depthwise",
          "StatefulPartitionedCall/model/mobilenetv2_1.00_160/block_8_project/Conv2D_weights",
          "StatefulPartitionedCall/model/mobilenetv2_1.00_160/block_8_project/Conv2D_bn_offset"
        ],
        "device": "/device:CPU:0",
        "attr": {
          "num_host_args": { "i": "0" },
          "data_format": { "s": "TkhXQw==" },
          "filter_format": { "s": "SFdJTw==" },
          "strides": { "list": { "i": ["1", "1", "1", "1"] } },
          "num_args": { "i": "1" },
          "fused_ops": { "list": { "s": ["Qmlhc0FkZA=="] } },
          "TArgs": { "list": { "type": ["DT_FLOAT"] } },
          "padding": { "s": "U0FNRQ==" },
          "use_cudnn_on_gpu": { "b": true },
          "leakyrelu_alpha": { "f": 0.2 },
          "epsilon": { "f": 0.0 },
          "T": { "type": "DT_FLOAT" },
          "explicit_paddings": { "list": {} },
          "dilations": { "list": { "i": ["1", "1", "1", "1"] } }
        }
      },
      {
        "name": "StatefulPartitionedCall/model/mobilenetv2_1.00_160/block_8_add/add",
        "op": "AddV2",
        "input": [
          "StatefulPartitionedCall/model/mobilenetv2_1.00_160/block_7_add/add",
          "StatefulPartitionedCall/model/mobilenetv2_1.00_160/block_8_project_BN/FusedBatchNormV3"
        ],
        "attr": { "T": { "type": "DT_FLOAT" } }
      },
      {
        "name": "StatefulPartitionedCall/model/mobilenetv2_1.00_160/block_9_expand_relu/Relu6",
        "op": "_FusedConv2D",
        "input": [
          "StatefulPartitionedCall/model/mobilenetv2_1.00_160/block_8_add/add",
          "StatefulPartitionedCall/model/mobilenetv2_1.00_160/block_9_expand/Conv2D_weights",
          "StatefulPartitionedCall/model/mobilenetv2_1.00_160/block_9_expand/Conv2D_bn_offset"
        ],
        "device": "/device:CPU:0",
        "attr": {
          "num_host_args": { "i": "0" },
          "data_format": { "s": "TkhXQw==" },
          "filter_format": { "s": "SFdJTw==" },
          "strides": { "list": { "i": ["1", "1", "1", "1"] } },
          "num_args": { "i": "1" },
          "fused_ops": { "list": { "s": ["Qmlhc0FkZA==", "UmVsdTY="] } },
          "TArgs": { "list": { "type": ["DT_FLOAT"] } },
          "padding": { "s": "U0FNRQ==" },
          "use_cudnn_on_gpu": { "b": true },
          "leakyrelu_alpha": { "f": 0.2 },
          "epsilon": { "f": 0.0 },
          "T": { "type": "DT_FLOAT" },
          "explicit_paddings": { "list": {} },
          "dilations": { "list": { "i": ["1", "1", "1", "1"] } }
        }
      },
      {
        "name": "StatefulPartitionedCall/model/mobilenetv2_1.00_160/block_9_depthwise/depthwise",
        "op": "FusedDepthwiseConv2dNative",
        "input": [
          "StatefulPartitionedCall/model/mobilenetv2_1.00_160/block_9_expand_relu/Relu6",
          "StatefulPartitionedCall/model/mobilenetv2_1.00_160/block_9_depthwise/depthwise_weights",
          "StatefulPartitionedCall/model/mobilenetv2_1.00_160/block_9_depthwise/depthwise_bn_offset"
        ],
        "attr": {
          "padding": { "s": "U0FNRQ==" },
          "data_format": { "s": "TkhXQw==" },
          "strides": { "list": { "i": ["1", "1", "1", "1"] } },
          "num_args": { "i": "1" },
          "fused_ops": { "list": { "s": ["Qmlhc0FkZA==", "UmVsdTY="] } },
          "T": { "type": "DT_FLOAT" },
          "explicit_paddings": { "list": {} },
          "dilations": { "list": { "i": ["1", "1", "1", "1"] } }
        }
      },
      {
        "name": "StatefulPartitionedCall/model/mobilenetv2_1.00_160/block_9_project_BN/FusedBatchNormV3",
        "op": "_FusedConv2D",
        "input": [
          "StatefulPartitionedCall/model/mobilenetv2_1.00_160/block_9_depthwise/depthwise",
          "StatefulPartitionedCall/model/mobilenetv2_1.00_160/block_9_project/Conv2D_weights",
          "StatefulPartitionedCall/model/mobilenetv2_1.00_160/block_9_project/Conv2D_bn_offset"
        ],
        "device": "/device:CPU:0",
        "attr": {
          "num_host_args": { "i": "0" },
          "data_format": { "s": "TkhXQw==" },
          "filter_format": { "s": "SFdJTw==" },
          "strides": { "list": { "i": ["1", "1", "1", "1"] } },
          "num_args": { "i": "1" },
          "fused_ops": { "list": { "s": ["Qmlhc0FkZA=="] } },
          "TArgs": { "list": { "type": ["DT_FLOAT"] } },
          "padding": { "s": "U0FNRQ==" },
          "use_cudnn_on_gpu": { "b": true },
          "leakyrelu_alpha": { "f": 0.2 },
          "epsilon": { "f": 0.0 },
          "T": { "type": "DT_FLOAT" },
          "explicit_paddings": { "list": {} },
          "dilations": { "list": { "i": ["1", "1", "1", "1"] } }
        }
      },
      {
        "name": "StatefulPartitionedCall/model/mobilenetv2_1.00_160/block_9_add/add",
        "op": "AddV2",
        "input": [
          "StatefulPartitionedCall/model/mobilenetv2_1.00_160/block_8_add/add",
          "StatefulPartitionedCall/model/mobilenetv2_1.00_160/block_9_project_BN/FusedBatchNormV3"
        ],
        "attr": { "T": { "type": "DT_FLOAT" } }
      },
      {
        "name": "StatefulPartitionedCall/model/mobilenetv2_1.00_160/block_10_expand_relu/Relu6",
        "op": "_FusedConv2D",
        "input": [
          "StatefulPartitionedCall/model/mobilenetv2_1.00_160/block_9_add/add",
          "StatefulPartitionedCall/model/mobilenetv2_1.00_160/block_10_expand/Conv2D_weights",
          "StatefulPartitionedCall/model/mobilenetv2_1.00_160/block_10_expand/Conv2D_bn_offset"
        ],
        "device": "/device:CPU:0",
        "attr": {
          "num_host_args": { "i": "0" },
          "data_format": { "s": "TkhXQw==" },
          "filter_format": { "s": "SFdJTw==" },
          "fused_ops": { "list": { "s": ["Qmlhc0FkZA==", "UmVsdTY="] } },
          "num_args": { "i": "1" },
          "strides": { "list": { "i": ["1", "1", "1", "1"] } },
          "TArgs": { "list": { "type": ["DT_FLOAT"] } },
          "padding": { "s": "U0FNRQ==" },
          "use_cudnn_on_gpu": { "b": true },
          "leakyrelu_alpha": { "f": 0.2 },
          "epsilon": { "f": 0.0 },
          "T": { "type": "DT_FLOAT" },
          "explicit_paddings": { "list": {} },
          "dilations": { "list": { "i": ["1", "1", "1", "1"] } }
        }
      },
      {
        "name": "StatefulPartitionedCall/model/mobilenetv2_1.00_160/block_10_depthwise/depthwise",
        "op": "FusedDepthwiseConv2dNative",
        "input": [
          "StatefulPartitionedCall/model/mobilenetv2_1.00_160/block_10_expand_relu/Relu6",
          "StatefulPartitionedCall/model/mobilenetv2_1.00_160/block_10_depthwise/depthwise_weights",
          "StatefulPartitionedCall/model/mobilenetv2_1.00_160/block_10_depthwise/depthwise_bn_offset"
        ],
        "attr": {
          "padding": { "s": "U0FNRQ==" },
          "data_format": { "s": "TkhXQw==" },
          "strides": { "list": { "i": ["1", "1", "1", "1"] } },
          "num_args": { "i": "1" },
          "fused_ops": { "list": { "s": ["Qmlhc0FkZA==", "UmVsdTY="] } },
          "T": { "type": "DT_FLOAT" },
          "explicit_paddings": { "list": {} },
          "dilations": { "list": { "i": ["1", "1", "1", "1"] } }
        }
      },
      {
        "name": "StatefulPartitionedCall/model/mobilenetv2_1.00_160/block_10_project_BN/FusedBatchNormV3",
        "op": "_FusedConv2D",
        "input": [
          "StatefulPartitionedCall/model/mobilenetv2_1.00_160/block_10_depthwise/depthwise",
          "StatefulPartitionedCall/model/mobilenetv2_1.00_160/block_10_project/Conv2D_weights",
          "StatefulPartitionedCall/model/mobilenetv2_1.00_160/block_10_project/Conv2D_bn_offset"
        ],
        "device": "/device:CPU:0",
        "attr": {
          "num_host_args": { "i": "0" },
          "data_format": { "s": "TkhXQw==" },
          "filter_format": { "s": "SFdJTw==" },
          "strides": { "list": { "i": ["1", "1", "1", "1"] } },
          "num_args": { "i": "1" },
          "fused_ops": { "list": { "s": ["Qmlhc0FkZA=="] } },
          "TArgs": { "list": { "type": ["DT_FLOAT"] } },
          "padding": { "s": "U0FNRQ==" },
          "use_cudnn_on_gpu": { "b": true },
          "leakyrelu_alpha": { "f": 0.2 },
          "epsilon": { "f": 0.0 },
          "T": { "type": "DT_FLOAT" },
          "explicit_paddings": { "list": {} },
          "dilations": { "list": { "i": ["1", "1", "1", "1"] } }
        }
      },
      {
        "name": "StatefulPartitionedCall/model/mobilenetv2_1.00_160/block_11_expand_relu/Relu6",
        "op": "_FusedConv2D",
        "input": [
          "StatefulPartitionedCall/model/mobilenetv2_1.00_160/block_10_project_BN/FusedBatchNormV3",
          "StatefulPartitionedCall/model/mobilenetv2_1.00_160/block_11_expand/Conv2D_weights",
          "StatefulPartitionedCall/model/mobilenetv2_1.00_160/block_11_expand/Conv2D_bn_offset"
        ],
        "device": "/device:CPU:0",
        "attr": {
          "num_host_args": { "i": "0" },
          "data_format": { "s": "TkhXQw==" },
          "filter_format": { "s": "SFdJTw==" },
          "fused_ops": { "list": { "s": ["Qmlhc0FkZA==", "UmVsdTY="] } },
          "num_args": { "i": "1" },
          "strides": { "list": { "i": ["1", "1", "1", "1"] } },
          "TArgs": { "list": { "type": ["DT_FLOAT"] } },
          "padding": { "s": "U0FNRQ==" },
          "use_cudnn_on_gpu": { "b": true },
          "leakyrelu_alpha": { "f": 0.2 },
          "epsilon": { "f": 0.0 },
          "T": { "type": "DT_FLOAT" },
          "explicit_paddings": { "list": {} },
          "dilations": { "list": { "i": ["1", "1", "1", "1"] } }
        }
      },
      {
        "name": "StatefulPartitionedCall/model/mobilenetv2_1.00_160/block_11_depthwise/depthwise",
        "op": "FusedDepthwiseConv2dNative",
        "input": [
          "StatefulPartitionedCall/model/mobilenetv2_1.00_160/block_11_expand_relu/Relu6",
          "StatefulPartitionedCall/model/mobilenetv2_1.00_160/block_11_depthwise/depthwise_weights",
          "StatefulPartitionedCall/model/mobilenetv2_1.00_160/block_11_depthwise/depthwise_bn_offset"
        ],
        "attr": {
          "padding": { "s": "U0FNRQ==" },
          "data_format": { "s": "TkhXQw==" },
          "strides": { "list": { "i": ["1", "1", "1", "1"] } },
          "num_args": { "i": "1" },
          "fused_ops": { "list": { "s": ["Qmlhc0FkZA==", "UmVsdTY="] } },
          "T": { "type": "DT_FLOAT" },
          "explicit_paddings": { "list": {} },
          "dilations": { "list": { "i": ["1", "1", "1", "1"] } }
        }
      },
      {
        "name": "StatefulPartitionedCall/model/mobilenetv2_1.00_160/block_11_project_BN/FusedBatchNormV3",
        "op": "_FusedConv2D",
        "input": [
          "StatefulPartitionedCall/model/mobilenetv2_1.00_160/block_11_depthwise/depthwise",
          "StatefulPartitionedCall/model/mobilenetv2_1.00_160/block_11_project/Conv2D_weights",
          "StatefulPartitionedCall/model/mobilenetv2_1.00_160/block_11_project/Conv2D_bn_offset"
        ],
        "device": "/device:CPU:0",
        "attr": {
          "num_host_args": { "i": "0" },
          "data_format": { "s": "TkhXQw==" },
          "filter_format": { "s": "SFdJTw==" },
          "fused_ops": { "list": { "s": ["Qmlhc0FkZA=="] } },
          "num_args": { "i": "1" },
          "strides": { "list": { "i": ["1", "1", "1", "1"] } },
          "TArgs": { "list": { "type": ["DT_FLOAT"] } },
          "padding": { "s": "U0FNRQ==" },
          "use_cudnn_on_gpu": { "b": true },
          "leakyrelu_alpha": { "f": 0.2 },
          "epsilon": { "f": 0.0 },
          "T": { "type": "DT_FLOAT" },
          "explicit_paddings": { "list": {} },
          "dilations": { "list": { "i": ["1", "1", "1", "1"] } }
        }
      },
      {
        "name": "StatefulPartitionedCall/model/mobilenetv2_1.00_160/block_11_add/add",
        "op": "AddV2",
        "input": [
          "StatefulPartitionedCall/model/mobilenetv2_1.00_160/block_10_project_BN/FusedBatchNormV3",
          "StatefulPartitionedCall/model/mobilenetv2_1.00_160/block_11_project_BN/FusedBatchNormV3"
        ],
        "attr": { "T": { "type": "DT_FLOAT" } }
      },
      {
        "name": "StatefulPartitionedCall/model/mobilenetv2_1.00_160/block_12_expand_relu/Relu6",
        "op": "_FusedConv2D",
        "input": [
          "StatefulPartitionedCall/model/mobilenetv2_1.00_160/block_11_add/add",
          "StatefulPartitionedCall/model/mobilenetv2_1.00_160/block_12_expand/Conv2D_weights",
          "StatefulPartitionedCall/model/mobilenetv2_1.00_160/block_12_expand/Conv2D_bn_offset"
        ],
        "device": "/device:CPU:0",
        "attr": {
          "num_host_args": { "i": "0" },
          "data_format": { "s": "TkhXQw==" },
          "filter_format": { "s": "SFdJTw==" },
          "fused_ops": { "list": { "s": ["Qmlhc0FkZA==", "UmVsdTY="] } },
          "num_args": { "i": "1" },
          "strides": { "list": { "i": ["1", "1", "1", "1"] } },
          "TArgs": { "list": { "type": ["DT_FLOAT"] } },
          "padding": { "s": "U0FNRQ==" },
          "use_cudnn_on_gpu": { "b": true },
          "leakyrelu_alpha": { "f": 0.2 },
          "epsilon": { "f": 0.0 },
          "T": { "type": "DT_FLOAT" },
          "explicit_paddings": { "list": {} },
          "dilations": { "list": { "i": ["1", "1", "1", "1"] } }
        }
      },
      {
        "name": "StatefulPartitionedCall/model/mobilenetv2_1.00_160/block_12_depthwise/depthwise",
        "op": "FusedDepthwiseConv2dNative",
        "input": [
          "StatefulPartitionedCall/model/mobilenetv2_1.00_160/block_12_expand_relu/Relu6",
          "StatefulPartitionedCall/model/mobilenetv2_1.00_160/block_12_depthwise/depthwise_weights",
          "StatefulPartitionedCall/model/mobilenetv2_1.00_160/block_12_depthwise/depthwise_bn_offset"
        ],
        "attr": {
          "padding": { "s": "U0FNRQ==" },
          "data_format": { "s": "TkhXQw==" },
          "strides": { "list": { "i": ["1", "1", "1", "1"] } },
          "num_args": { "i": "1" },
          "fused_ops": { "list": { "s": ["Qmlhc0FkZA==", "UmVsdTY="] } },
          "T": { "type": "DT_FLOAT" },
          "explicit_paddings": { "list": {} },
          "dilations": { "list": { "i": ["1", "1", "1", "1"] } }
        }
      },
      {
        "name": "StatefulPartitionedCall/model/mobilenetv2_1.00_160/block_12_project_BN/FusedBatchNormV3",
        "op": "_FusedConv2D",
        "input": [
          "StatefulPartitionedCall/model/mobilenetv2_1.00_160/block_12_depthwise/depthwise",
          "StatefulPartitionedCall/model/mobilenetv2_1.00_160/block_12_project/Conv2D_weights",
          "StatefulPartitionedCall/model/mobilenetv2_1.00_160/block_12_project/Conv2D_bn_offset"
        ],
        "device": "/device:CPU:0",
        "attr": {
          "num_host_args": { "i": "0" },
          "data_format": { "s": "TkhXQw==" },
          "filter_format": { "s": "SFdJTw==" },
          "fused_ops": { "list": { "s": ["Qmlhc0FkZA=="] } },
          "num_args": { "i": "1" },
          "strides": { "list": { "i": ["1", "1", "1", "1"] } },
          "TArgs": { "list": { "type": ["DT_FLOAT"] } },
          "padding": { "s": "U0FNRQ==" },
          "use_cudnn_on_gpu": { "b": true },
          "leakyrelu_alpha": { "f": 0.2 },
          "epsilon": { "f": 0.0 },
          "T": { "type": "DT_FLOAT" },
          "explicit_paddings": { "list": {} },
          "dilations": { "list": { "i": ["1", "1", "1", "1"] } }
        }
      },
      {
        "name": "StatefulPartitionedCall/model/mobilenetv2_1.00_160/block_12_add/add",
        "op": "AddV2",
        "input": [
          "StatefulPartitionedCall/model/mobilenetv2_1.00_160/block_11_add/add",
          "StatefulPartitionedCall/model/mobilenetv2_1.00_160/block_12_project_BN/FusedBatchNormV3"
        ],
        "attr": { "T": { "type": "DT_FLOAT" } }
      },
      {
        "name": "StatefulPartitionedCall/model/mobilenetv2_1.00_160/block_13_expand_relu/Relu6",
        "op": "_FusedConv2D",
        "input": [
          "StatefulPartitionedCall/model/mobilenetv2_1.00_160/block_12_add/add",
          "StatefulPartitionedCall/model/mobilenetv2_1.00_160/block_13_expand/Conv2D_weights",
          "StatefulPartitionedCall/model/mobilenetv2_1.00_160/block_13_expand/Conv2D_bn_offset"
        ],
        "device": "/device:CPU:0",
        "attr": {
          "num_host_args": { "i": "0" },
          "data_format": { "s": "TkhXQw==" },
          "filter_format": { "s": "SFdJTw==" },
          "strides": { "list": { "i": ["1", "1", "1", "1"] } },
          "num_args": { "i": "1" },
          "fused_ops": { "list": { "s": ["Qmlhc0FkZA==", "UmVsdTY="] } },
          "TArgs": { "list": { "type": ["DT_FLOAT"] } },
          "padding": { "s": "U0FNRQ==" },
          "use_cudnn_on_gpu": { "b": true },
          "leakyrelu_alpha": { "f": 0.2 },
          "epsilon": { "f": 0.0 },
          "T": { "type": "DT_FLOAT" },
          "explicit_paddings": { "list": {} },
          "dilations": { "list": { "i": ["1", "1", "1", "1"] } }
        }
      },
      {
        "name": "StatefulPartitionedCall/model/mobilenetv2_1.00_160/block_13_pad/Pad",
        "op": "Pad",
        "input": [
          "StatefulPartitionedCall/model/mobilenetv2_1.00_160/block_13_expand_relu/Relu6",
          "StatefulPartitionedCall/model/mobilenetv2_1.00_160/block_13_pad/Pad/paddings"
        ],
        "attr": {
          "Tpaddings": { "type": "DT_INT32" },
          "T": { "type": "DT_FLOAT" }
        }
      },
      {
        "name": "StatefulPartitionedCall/model/mobilenetv2_1.00_160/block_13_depthwise/depthwise",
        "op": "FusedDepthwiseConv2dNative",
        "input": [
          "StatefulPartitionedCall/model/mobilenetv2_1.00_160/block_13_pad/Pad",
          "StatefulPartitionedCall/model/mobilenetv2_1.00_160/block_13_depthwise/depthwise_weights",
          "StatefulPartitionedCall/model/mobilenetv2_1.00_160/block_13_depthwise/depthwise_bn_offset"
        ],
        "attr": {
          "padding": { "s": "VkFMSUQ=" },
          "data_format": { "s": "TkhXQw==" },
          "strides": { "list": { "i": ["1", "2", "2", "1"] } },
          "num_args": { "i": "1" },
          "fused_ops": { "list": { "s": ["Qmlhc0FkZA==", "UmVsdTY="] } },
          "T": { "type": "DT_FLOAT" },
          "explicit_paddings": { "list": {} },
          "dilations": { "list": { "i": ["1", "1", "1", "1"] } }
        }
      },
      {
        "name": "StatefulPartitionedCall/model/mobilenetv2_1.00_160/block_13_project_BN/FusedBatchNormV3",
        "op": "_FusedConv2D",
        "input": [
          "StatefulPartitionedCall/model/mobilenetv2_1.00_160/block_13_depthwise/depthwise",
          "StatefulPartitionedCall/model/mobilenetv2_1.00_160/block_13_project/Conv2D_weights",
          "StatefulPartitionedCall/model/mobilenetv2_1.00_160/block_13_project/Conv2D_bn_offset"
        ],
        "device": "/device:CPU:0",
        "attr": {
          "num_host_args": { "i": "0" },
          "data_format": { "s": "TkhXQw==" },
          "filter_format": { "s": "SFdJTw==" },
          "fused_ops": { "list": { "s": ["Qmlhc0FkZA=="] } },
          "num_args": { "i": "1" },
          "strides": { "list": { "i": ["1", "1", "1", "1"] } },
          "TArgs": { "list": { "type": ["DT_FLOAT"] } },
          "padding": { "s": "U0FNRQ==" },
          "use_cudnn_on_gpu": { "b": true },
          "leakyrelu_alpha": { "f": 0.2 },
          "epsilon": { "f": 0.0 },
          "T": { "type": "DT_FLOAT" },
          "explicit_paddings": { "list": {} },
          "dilations": { "list": { "i": ["1", "1", "1", "1"] } }
        }
      },
      {
        "name": "StatefulPartitionedCall/model/mobilenetv2_1.00_160/block_14_expand_relu/Relu6",
        "op": "_FusedConv2D",
        "input": [
          "StatefulPartitionedCall/model/mobilenetv2_1.00_160/block_13_project_BN/FusedBatchNormV3",
          "StatefulPartitionedCall/model/mobilenetv2_1.00_160/block_14_expand/Conv2D_weights",
          "StatefulPartitionedCall/model/mobilenetv2_1.00_160/block_14_expand/Conv2D_bn_offset"
        ],
        "device": "/device:CPU:0",
        "attr": {
          "num_host_args": { "i": "0" },
          "data_format": { "s": "TkhXQw==" },
          "filter_format": { "s": "SFdJTw==" },
          "fused_ops": { "list": { "s": ["Qmlhc0FkZA==", "UmVsdTY="] } },
          "num_args": { "i": "1" },
          "strides": { "list": { "i": ["1", "1", "1", "1"] } },
          "TArgs": { "list": { "type": ["DT_FLOAT"] } },
          "padding": { "s": "U0FNRQ==" },
          "use_cudnn_on_gpu": { "b": true },
          "leakyrelu_alpha": { "f": 0.2 },
          "epsilon": { "f": 0.0 },
          "T": { "type": "DT_FLOAT" },
          "explicit_paddings": { "list": {} },
          "dilations": { "list": { "i": ["1", "1", "1", "1"] } }
        }
      },
      {
        "name": "StatefulPartitionedCall/model/mobilenetv2_1.00_160/block_14_depthwise/depthwise",
        "op": "FusedDepthwiseConv2dNative",
        "input": [
          "StatefulPartitionedCall/model/mobilenetv2_1.00_160/block_14_expand_relu/Relu6",
          "StatefulPartitionedCall/model/mobilenetv2_1.00_160/block_14_depthwise/depthwise_weights",
          "StatefulPartitionedCall/model/mobilenetv2_1.00_160/block_14_depthwise/depthwise_bn_offset"
        ],
        "attr": {
          "padding": { "s": "U0FNRQ==" },
          "data_format": { "s": "TkhXQw==" },
          "strides": { "list": { "i": ["1", "1", "1", "1"] } },
          "num_args": { "i": "1" },
          "fused_ops": { "list": { "s": ["Qmlhc0FkZA==", "UmVsdTY="] } },
          "T": { "type": "DT_FLOAT" },
          "explicit_paddings": { "list": {} },
          "dilations": { "list": { "i": ["1", "1", "1", "1"] } }
        }
      },
      {
        "name": "StatefulPartitionedCall/model/mobilenetv2_1.00_160/block_14_project_BN/FusedBatchNormV3",
        "op": "_FusedConv2D",
        "input": [
          "StatefulPartitionedCall/model/mobilenetv2_1.00_160/block_14_depthwise/depthwise",
          "StatefulPartitionedCall/model/mobilenetv2_1.00_160/block_14_project/Conv2D_weights",
          "StatefulPartitionedCall/model/mobilenetv2_1.00_160/block_14_project/Conv2D_bn_offset"
        ],
        "device": "/device:CPU:0",
        "attr": {
          "num_host_args": { "i": "0" },
          "data_format": { "s": "TkhXQw==" },
          "filter_format": { "s": "SFdJTw==" },
          "strides": { "list": { "i": ["1", "1", "1", "1"] } },
          "num_args": { "i": "1" },
          "fused_ops": { "list": { "s": ["Qmlhc0FkZA=="] } },
          "TArgs": { "list": { "type": ["DT_FLOAT"] } },
          "padding": { "s": "U0FNRQ==" },
          "use_cudnn_on_gpu": { "b": true },
          "leakyrelu_alpha": { "f": 0.2 },
          "epsilon": { "f": 0.0 },
          "T": { "type": "DT_FLOAT" },
          "explicit_paddings": { "list": {} },
          "dilations": { "list": { "i": ["1", "1", "1", "1"] } }
        }
      },
      {
        "name": "StatefulPartitionedCall/model/mobilenetv2_1.00_160/block_14_add/add",
        "op": "AddV2",
        "input": [
          "StatefulPartitionedCall/model/mobilenetv2_1.00_160/block_13_project_BN/FusedBatchNormV3",
          "StatefulPartitionedCall/model/mobilenetv2_1.00_160/block_14_project_BN/FusedBatchNormV3"
        ],
        "attr": { "T": { "type": "DT_FLOAT" } }
      },
      {
        "name": "StatefulPartitionedCall/model/mobilenetv2_1.00_160/block_15_expand_relu/Relu6",
        "op": "_FusedConv2D",
        "input": [
          "StatefulPartitionedCall/model/mobilenetv2_1.00_160/block_14_add/add",
          "StatefulPartitionedCall/model/mobilenetv2_1.00_160/block_15_expand/Conv2D_weights",
          "StatefulPartitionedCall/model/mobilenetv2_1.00_160/block_15_expand/Conv2D_bn_offset"
        ],
        "device": "/device:CPU:0",
        "attr": {
          "num_host_args": { "i": "0" },
          "data_format": { "s": "TkhXQw==" },
          "filter_format": { "s": "SFdJTw==" },
          "fused_ops": { "list": { "s": ["Qmlhc0FkZA==", "UmVsdTY="] } },
          "num_args": { "i": "1" },
          "strides": { "list": { "i": ["1", "1", "1", "1"] } },
          "TArgs": { "list": { "type": ["DT_FLOAT"] } },
          "padding": { "s": "U0FNRQ==" },
          "use_cudnn_on_gpu": { "b": true },
          "leakyrelu_alpha": { "f": 0.2 },
          "epsilon": { "f": 0.0 },
          "T": { "type": "DT_FLOAT" },
          "explicit_paddings": { "list": {} },
          "dilations": { "list": { "i": ["1", "1", "1", "1"] } }
        }
      },
      {
        "name": "StatefulPartitionedCall/model/mobilenetv2_1.00_160/block_15_depthwise/depthwise",
        "op": "FusedDepthwiseConv2dNative",
        "input": [
          "StatefulPartitionedCall/model/mobilenetv2_1.00_160/block_15_expand_relu/Relu6",
          "StatefulPartitionedCall/model/mobilenetv2_1.00_160/block_15_depthwise/depthwise_weights",
          "StatefulPartitionedCall/model/mobilenetv2_1.00_160/block_15_depthwise/depthwise_bn_offset"
        ],
        "attr": {
          "padding": { "s": "U0FNRQ==" },
          "data_format": { "s": "TkhXQw==" },
          "strides": { "list": { "i": ["1", "1", "1", "1"] } },
          "num_args": { "i": "1" },
          "fused_ops": { "list": { "s": ["Qmlhc0FkZA==", "UmVsdTY="] } },
          "T": { "type": "DT_FLOAT" },
          "explicit_paddings": { "list": {} },
          "dilations": { "list": { "i": ["1", "1", "1", "1"] } }
        }
      },
      {
        "name": "StatefulPartitionedCall/model/mobilenetv2_1.00_160/block_15_project_BN/FusedBatchNormV3",
        "op": "_FusedConv2D",
        "input": [
          "StatefulPartitionedCall/model/mobilenetv2_1.00_160/block_15_depthwise/depthwise",
          "StatefulPartitionedCall/model/mobilenetv2_1.00_160/block_15_project/Conv2D_weights",
          "StatefulPartitionedCall/model/mobilenetv2_1.00_160/block_15_project/Conv2D_bn_offset"
        ],
        "device": "/device:CPU:0",
        "attr": {
          "num_host_args": { "i": "0" },
          "data_format": { "s": "TkhXQw==" },
          "filter_format": { "s": "SFdJTw==" },
          "strides": { "list": { "i": ["1", "1", "1", "1"] } },
          "num_args": { "i": "1" },
          "fused_ops": { "list": { "s": ["Qmlhc0FkZA=="] } },
          "TArgs": { "list": { "type": ["DT_FLOAT"] } },
          "padding": { "s": "U0FNRQ==" },
          "use_cudnn_on_gpu": { "b": true },
          "leakyrelu_alpha": { "f": 0.2 },
          "epsilon": { "f": 0.0 },
          "T": { "type": "DT_FLOAT" },
          "explicit_paddings": { "list": {} },
          "dilations": { "list": { "i": ["1", "1", "1", "1"] } }
        }
      },
      {
        "name": "StatefulPartitionedCall/model/mobilenetv2_1.00_160/block_15_add/add",
        "op": "AddV2",
        "input": [
          "StatefulPartitionedCall/model/mobilenetv2_1.00_160/block_14_add/add",
          "StatefulPartitionedCall/model/mobilenetv2_1.00_160/block_15_project_BN/FusedBatchNormV3"
        ],
        "attr": { "T": { "type": "DT_FLOAT" } }
      },
      {
        "name": "StatefulPartitionedCall/model/mobilenetv2_1.00_160/block_16_expand_relu/Relu6",
        "op": "_FusedConv2D",
        "input": [
          "StatefulPartitionedCall/model/mobilenetv2_1.00_160/block_15_add/add",
          "StatefulPartitionedCall/model/mobilenetv2_1.00_160/block_16_expand/Conv2D_weights",
          "StatefulPartitionedCall/model/mobilenetv2_1.00_160/block_16_expand/Conv2D_bn_offset"
        ],
        "device": "/device:CPU:0",
        "attr": {
          "num_host_args": { "i": "0" },
          "data_format": { "s": "TkhXQw==" },
          "filter_format": { "s": "SFdJTw==" },
          "fused_ops": { "list": { "s": ["Qmlhc0FkZA==", "UmVsdTY="] } },
          "num_args": { "i": "1" },
          "strides": { "list": { "i": ["1", "1", "1", "1"] } },
          "TArgs": { "list": { "type": ["DT_FLOAT"] } },
          "padding": { "s": "U0FNRQ==" },
          "use_cudnn_on_gpu": { "b": true },
          "leakyrelu_alpha": { "f": 0.2 },
          "epsilon": { "f": 0.0 },
          "T": { "type": "DT_FLOAT" },
          "explicit_paddings": { "list": {} },
          "dilations": { "list": { "i": ["1", "1", "1", "1"] } }
        }
      },
      {
        "name": "StatefulPartitionedCall/model/mobilenetv2_1.00_160/block_16_depthwise/depthwise",
        "op": "FusedDepthwiseConv2dNative",
        "input": [
          "StatefulPartitionedCall/model/mobilenetv2_1.00_160/block_16_expand_relu/Relu6",
          "StatefulPartitionedCall/model/mobilenetv2_1.00_160/block_16_depthwise/depthwise_weights",
          "StatefulPartitionedCall/model/mobilenetv2_1.00_160/block_16_depthwise/depthwise_bn_offset"
        ],
        "attr": {
          "padding": { "s": "U0FNRQ==" },
          "data_format": { "s": "TkhXQw==" },
          "strides": { "list": { "i": ["1", "1", "1", "1"] } },
          "num_args": { "i": "1" },
          "fused_ops": { "list": { "s": ["Qmlhc0FkZA==", "UmVsdTY="] } },
          "T": { "type": "DT_FLOAT" },
          "explicit_paddings": { "list": {} },
          "dilations": { "list": { "i": ["1", "1", "1", "1"] } }
        }
      },
      {
        "name": "StatefulPartitionedCall/model/mobilenetv2_1.00_160/block_16_project_BN/FusedBatchNormV3",
        "op": "_FusedConv2D",
        "input": [
          "StatefulPartitionedCall/model/mobilenetv2_1.00_160/block_16_depthwise/depthwise",
          "StatefulPartitionedCall/model/mobilenetv2_1.00_160/block_16_project/Conv2D_weights",
          "StatefulPartitionedCall/model/mobilenetv2_1.00_160/block_16_project/Conv2D_bn_offset"
        ],
        "device": "/device:CPU:0",
        "attr": {
          "num_host_args": { "i": "0" },
          "data_format": { "s": "TkhXQw==" },
          "filter_format": { "s": "SFdJTw==" },
          "fused_ops": { "list": { "s": ["Qmlhc0FkZA=="] } },
          "num_args": { "i": "1" },
          "strides": { "list": { "i": ["1", "1", "1", "1"] } },
          "TArgs": { "list": { "type": ["DT_FLOAT"] } },
          "padding": { "s": "U0FNRQ==" },
          "use_cudnn_on_gpu": { "b": true },
          "leakyrelu_alpha": { "f": 0.2 },
          "epsilon": { "f": 0.0 },
          "T": { "type": "DT_FLOAT" },
          "explicit_paddings": { "list": {} },
          "dilations": { "list": { "i": ["1", "1", "1", "1"] } }
        }
      },
      {
        "name": "StatefulPartitionedCall/model/mobilenetv2_1.00_160/out_relu/Relu6",
        "op": "_FusedConv2D",
        "input": [
          "StatefulPartitionedCall/model/mobilenetv2_1.00_160/block_16_project_BN/FusedBatchNormV3",
          "StatefulPartitionedCall/model/mobilenetv2_1.00_160/Conv_1/Conv2D_weights",
          "StatefulPartitionedCall/model/mobilenetv2_1.00_160/Conv_1/Conv2D_bn_offset"
        ],
        "device": "/device:CPU:0",
        "attr": {
          "num_host_args": { "i": "0" },
          "data_format": { "s": "TkhXQw==" },
          "filter_format": { "s": "SFdJTw==" },
          "fused_ops": { "list": { "s": ["Qmlhc0FkZA==", "UmVsdTY="] } },
          "num_args": { "i": "1" },
          "strides": { "list": { "i": ["1", "1", "1", "1"] } },
          "TArgs": { "list": { "type": ["DT_FLOAT"] } },
          "padding": { "s": "VkFMSUQ=" },
          "use_cudnn_on_gpu": { "b": true },
          "leakyrelu_alpha": { "f": 0.2 },
          "epsilon": { "f": 0.0 },
          "T": { "type": "DT_FLOAT" },
          "explicit_paddings": { "list": {} },
          "dilations": { "list": { "i": ["1", "1", "1", "1"] } }
        }
      },
      {
        "name": "StatefulPartitionedCall/model/global_average_pooling2d/Mean",
        "op": "Mean",
        "input": [
          "StatefulPartitionedCall/model/mobilenetv2_1.00_160/out_relu/Relu6",
          "StatefulPartitionedCall/model/global_average_pooling2d/Mean/reduction_indices"
        ],
        "attr": {
          "T": { "type": "DT_FLOAT" },
          "Tidx": { "type": "DT_INT32" },
          "keep_dims": { "b": false }
        }
      },
      {
        "name": "StatefulPartitionedCall/model/dense/BiasAdd",
        "op": "_FusedMatMul",
        "input": [
          "StatefulPartitionedCall/model/global_average_pooling2d/Mean",
          "StatefulPartitionedCall/model/dense/MatMul/ReadVariableOp",
          "StatefulPartitionedCall/model/dense/BiasAdd/ReadVariableOp"
        ],
        "device": "/device:CPU:0",
        "attr": {
          "transpose_a": { "b": false },
          "transpose_b": { "b": false },
          "fused_ops": { "list": { "s": ["Qmlhc0FkZA=="] } },
          "leakyrelu_alpha": { "f": 0.2 },
          "num_args": { "i": "1" },
          "epsilon": { "f": 0.0 },
          "T": { "type": "DT_FLOAT" }
        }
      },
      {
        "name": "Identity",
        "op": "Identity",
        "input": ["StatefulPartitionedCall/model/dense/BiasAdd"],
        "attr": { "T": { "type": "DT_FLOAT" } }
      }
    ],
    "library": {},
    "versions": { "producer": 1645 }
  },
  "weightsManifest": [
    {
      "paths": [
        "group1-shard1of3.bin",
        "group1-shard2of3.bin",
        "group1-shard3of3.bin"
      ],
      "weights": [
        {
          "name": "ConstantFolding/StatefulPartitionedCall/model/tf.math.truediv/truediv_recip",
          "shape": [],
          "dtype": "float32"
        },
        {
          "name": "StatefulPartitionedCall/model/tf.math.subtract/Sub/y",
          "shape": [],
          "dtype": "float32"
        },
        {
          "name": "StatefulPartitionedCall/model/mobilenetv2_1.00_160/block_1_pad/Pad/paddings",
          "shape": [4, 2],
          "dtype": "int32"
        },
        {
          "name": "StatefulPartitionedCall/model/mobilenetv2_1.00_160/block_3_pad/Pad/paddings",
          "shape": [4, 2],
          "dtype": "int32"
        },
        {
          "name": "StatefulPartitionedCall/model/mobilenetv2_1.00_160/block_6_pad/Pad/paddings",
          "shape": [4, 2],
          "dtype": "int32"
        },
        {
          "name": "StatefulPartitionedCall/model/mobilenetv2_1.00_160/block_13_pad/Pad/paddings",
          "shape": [4, 2],
          "dtype": "int32"
        },
        {
          "name": "StatefulPartitionedCall/model/global_average_pooling2d/Mean/reduction_indices",
          "shape": [2],
          "dtype": "int32"
        },
        {
          "name": "StatefulPartitionedCall/model/dense/MatMul/ReadVariableOp",
          "shape": [1280, 1],
          "dtype": "float32"
        },
        {
          "name": "StatefulPartitionedCall/model/dense/BiasAdd/ReadVariableOp",
          "shape": [1],
          "dtype": "float32"
        },
        {
          "name": "StatefulPartitionedCall/model/mobilenetv2_1.00_160/Conv1/Conv2D_weights",
          "shape": [3, 3, 3, 32],
          "dtype": "float32"
        },
        {
          "name": "StatefulPartitionedCall/model/mobilenetv2_1.00_160/Conv1/Conv2D_bn_offset",
          "shape": [32],
          "dtype": "float32"
        },
        {
          "name": "StatefulPartitionedCall/model/mobilenetv2_1.00_160/block_14_expand/Conv2D_weights",
          "shape": [1, 1, 160, 960],
          "dtype": "float32"
        },
        {
          "name": "StatefulPartitionedCall/model/mobilenetv2_1.00_160/expanded_conv_depthwise/depthwise_weights",
          "shape": [3, 3, 32, 1],
          "dtype": "float32"
        },
        {
          "name": "StatefulPartitionedCall/model/mobilenetv2_1.00_160/expanded_conv_depthwise/depthwise_bn_offset",
          "shape": [32],
          "dtype": "float32"
        },
        {
          "name": "StatefulPartitionedCall/model/mobilenetv2_1.00_160/expanded_conv_project/Conv2D_weights",
          "shape": [1, 1, 32, 16],
          "dtype": "float32"
        },
        {
          "name": "StatefulPartitionedCall/model/mobilenetv2_1.00_160/expanded_conv_project/Conv2D_bn_offset",
          "shape": [16],
          "dtype": "float32"
        },
        {
          "name": "StatefulPartitionedCall/model/mobilenetv2_1.00_160/block_1_expand/Conv2D_weights",
          "shape": [1, 1, 16, 96],
          "dtype": "float32"
        },
        {
          "name": "StatefulPartitionedCall/model/mobilenetv2_1.00_160/block_14_expand/Conv2D_bn_offset",
          "shape": [960],
          "dtype": "float32"
        },
        {
          "name": "StatefulPartitionedCall/model/mobilenetv2_1.00_160/block_1_expand/Conv2D_bn_offset",
          "shape": [96],
          "dtype": "float32"
        },
        {
          "name": "StatefulPartitionedCall/model/mobilenetv2_1.00_160/block_16_project/Conv2D_bn_offset",
          "shape": [320],
          "dtype": "float32"
        },
        {
          "name": "StatefulPartitionedCall/model/mobilenetv2_1.00_160/block_1_depthwise/depthwise_weights",
          "shape": [3, 3, 96, 1],
          "dtype": "float32"
        },
        {
          "name": "StatefulPartitionedCall/model/mobilenetv2_1.00_160/block_1_depthwise/depthwise_bn_offset",
          "shape": [96],
          "dtype": "float32"
        },
        {
          "name": "StatefulPartitionedCall/model/mobilenetv2_1.00_160/block_1_project/Conv2D_weights",
          "shape": [1, 1, 96, 24],
          "dtype": "float32"
        },
        {
          "name": "StatefulPartitionedCall/model/mobilenetv2_1.00_160/block_1_project/Conv2D_bn_offset",
          "shape": [24],
          "dtype": "float32"
        },
        {
          "name": "StatefulPartitionedCall/model/mobilenetv2_1.00_160/block_2_expand/Conv2D_weights",
          "shape": [1, 1, 24, 144],
          "dtype": "float32"
        },
        {
          "name": "StatefulPartitionedCall/model/mobilenetv2_1.00_160/block_14_depthwise/depthwise_weights",
          "shape": [3, 3, 960, 1],
          "dtype": "float32"
        },
        {
          "name": "StatefulPartitionedCall/model/mobilenetv2_1.00_160/block_2_expand/Conv2D_bn_offset",
          "shape": [144],
          "dtype": "float32"
        },
        {
          "name": "StatefulPartitionedCall/model/mobilenetv2_1.00_160/block_2_depthwise/depthwise_weights",
          "shape": [3, 3, 144, 1],
          "dtype": "float32"
        },
        {
          "name": "StatefulPartitionedCall/model/mobilenetv2_1.00_160/block_2_depthwise/depthwise_bn_offset",
          "shape": [144],
          "dtype": "float32"
        },
        {
          "name": "StatefulPartitionedCall/model/mobilenetv2_1.00_160/block_2_project/Conv2D_weights",
          "shape": [1, 1, 144, 24],
          "dtype": "float32"
        },
        {
          "name": "StatefulPartitionedCall/model/mobilenetv2_1.00_160/block_14_depthwise/depthwise_bn_offset",
          "shape": [960],
          "dtype": "float32"
        },
        {
          "name": "StatefulPartitionedCall/model/mobilenetv2_1.00_160/block_2_project/Conv2D_bn_offset",
          "shape": [24],
          "dtype": "float32"
        },
        {
          "name": "StatefulPartitionedCall/model/mobilenetv2_1.00_160/block_3_expand/Conv2D_weights",
          "shape": [1, 1, 24, 144],
          "dtype": "float32"
        },
        {
          "name": "StatefulPartitionedCall/model/mobilenetv2_1.00_160/block_3_expand/Conv2D_bn_offset",
          "shape": [144],
          "dtype": "float32"
        },
        {
          "name": "StatefulPartitionedCall/model/mobilenetv2_1.00_160/block_3_depthwise/depthwise_weights",
          "shape": [3, 3, 144, 1],
          "dtype": "float32"
        },
        {
          "name": "StatefulPartitionedCall/model/mobilenetv2_1.00_160/block_3_depthwise/depthwise_bn_offset",
          "shape": [144],
          "dtype": "float32"
        },
        {
          "name": "StatefulPartitionedCall/model/mobilenetv2_1.00_160/block_3_project/Conv2D_weights",
          "shape": [1, 1, 144, 32],
          "dtype": "float32"
        },
        {
          "name": "StatefulPartitionedCall/model/mobilenetv2_1.00_160/block_14_project/Conv2D_weights",
          "shape": [1, 1, 960, 160],
          "dtype": "float32"
        },
        {
          "name": "StatefulPartitionedCall/model/mobilenetv2_1.00_160/block_3_project/Conv2D_bn_offset",
          "shape": [32],
          "dtype": "float32"
        },
        {
          "name": "StatefulPartitionedCall/model/mobilenetv2_1.00_160/block_4_expand/Conv2D_weights",
          "shape": [1, 1, 32, 192],
          "dtype": "float32"
        },
        {
          "name": "StatefulPartitionedCall/model/mobilenetv2_1.00_160/block_4_expand/Conv2D_bn_offset",
          "shape": [192],
          "dtype": "float32"
        },
        {
          "name": "StatefulPartitionedCall/model/mobilenetv2_1.00_160/block_14_project/Conv2D_bn_offset",
          "shape": [160],
          "dtype": "float32"
        },
        {
          "name": "StatefulPartitionedCall/model/mobilenetv2_1.00_160/block_4_depthwise/depthwise_weights",
          "shape": [3, 3, 192, 1],
          "dtype": "float32"
        },
        {
          "name": "StatefulPartitionedCall/model/mobilenetv2_1.00_160/block_4_depthwise/depthwise_bn_offset",
          "shape": [192],
          "dtype": "float32"
        },
        {
          "name": "StatefulPartitionedCall/model/mobilenetv2_1.00_160/block_4_project/Conv2D_weights",
          "shape": [1, 1, 192, 32],
          "dtype": "float32"
        },
        {
          "name": "StatefulPartitionedCall/model/mobilenetv2_1.00_160/block_4_project/Conv2D_bn_offset",
          "shape": [32],
          "dtype": "float32"
        },
        {
          "name": "StatefulPartitionedCall/model/mobilenetv2_1.00_160/block_5_expand/Conv2D_weights",
          "shape": [1, 1, 32, 192],
          "dtype": "float32"
        },
        {
          "name": "StatefulPartitionedCall/model/mobilenetv2_1.00_160/block_5_expand/Conv2D_bn_offset",
          "shape": [192],
          "dtype": "float32"
        },
        {
          "name": "StatefulPartitionedCall/model/mobilenetv2_1.00_160/block_15_expand/Conv2D_weights",
          "shape": [1, 1, 160, 960],
          "dtype": "float32"
        },
        {
          "name": "StatefulPartitionedCall/model/mobilenetv2_1.00_160/block_5_depthwise/depthwise_weights",
          "shape": [3, 3, 192, 1],
          "dtype": "float32"
        },
        {
          "name": "StatefulPartitionedCall/model/mobilenetv2_1.00_160/block_5_depthwise/depthwise_bn_offset",
          "shape": [192],
          "dtype": "float32"
        },
        {
          "name": "StatefulPartitionedCall/model/mobilenetv2_1.00_160/block_5_project/Conv2D_weights",
          "shape": [1, 1, 192, 32],
          "dtype": "float32"
        },
        {
          "name": "StatefulPartitionedCall/model/mobilenetv2_1.00_160/Conv_1/Conv2D_weights",
          "shape": [1, 1, 320, 1280],
          "dtype": "float32"
        },
        {
          "name": "StatefulPartitionedCall/model/mobilenetv2_1.00_160/block_5_project/Conv2D_bn_offset",
          "shape": [32],
          "dtype": "float32"
        },
        {
          "name": "StatefulPartitionedCall/model/mobilenetv2_1.00_160/block_6_expand/Conv2D_weights",
          "shape": [1, 1, 32, 192],
          "dtype": "float32"
        },
        {
          "name": "StatefulPartitionedCall/model/mobilenetv2_1.00_160/block_15_expand/Conv2D_bn_offset",
          "shape": [960],
          "dtype": "float32"
        },
        {
          "name": "StatefulPartitionedCall/model/mobilenetv2_1.00_160/block_6_expand/Conv2D_bn_offset",
          "shape": [192],
          "dtype": "float32"
        },
        {
          "name": "StatefulPartitionedCall/model/mobilenetv2_1.00_160/block_6_depthwise/depthwise_weights",
          "shape": [3, 3, 192, 1],
          "dtype": "float32"
        },
        {
          "name": "StatefulPartitionedCall/model/mobilenetv2_1.00_160/block_6_depthwise/depthwise_bn_offset",
          "shape": [192],
          "dtype": "float32"
        },
        {
          "name": "StatefulPartitionedCall/model/mobilenetv2_1.00_160/block_6_project/Conv2D_weights",
          "shape": [1, 1, 192, 64],
          "dtype": "float32"
        },
        {
          "name": "StatefulPartitionedCall/model/mobilenetv2_1.00_160/block_6_project/Conv2D_bn_offset",
          "shape": [64],
          "dtype": "float32"
        },
        {
          "name": "StatefulPartitionedCall/model/mobilenetv2_1.00_160/block_7_expand/Conv2D_weights",
          "shape": [1, 1, 64, 384],
          "dtype": "float32"
        },
        {
          "name": "StatefulPartitionedCall/model/mobilenetv2_1.00_160/block_15_depthwise/depthwise_weights",
          "shape": [3, 3, 960, 1],
          "dtype": "float32"
        },
        {
          "name": "StatefulPartitionedCall/model/mobilenetv2_1.00_160/block_7_expand/Conv2D_bn_offset",
          "shape": [384],
          "dtype": "float32"
        },
        {
          "name": "StatefulPartitionedCall/model/mobilenetv2_1.00_160/block_7_depthwise/depthwise_weights",
          "shape": [3, 3, 384, 1],
          "dtype": "float32"
        },
        {
          "name": "StatefulPartitionedCall/model/mobilenetv2_1.00_160/block_7_depthwise/depthwise_bn_offset",
          "shape": [384],
          "dtype": "float32"
        },
        {
          "name": "StatefulPartitionedCall/model/mobilenetv2_1.00_160/block_7_project/Conv2D_weights",
          "shape": [1, 1, 384, 64],
          "dtype": "float32"
        },
        {
          "name": "StatefulPartitionedCall/model/mobilenetv2_1.00_160/block_15_depthwise/depthwise_bn_offset",
          "shape": [960],
          "dtype": "float32"
        },
        {
          "name": "StatefulPartitionedCall/model/mobilenetv2_1.00_160/block_7_project/Conv2D_bn_offset",
          "shape": [64],
          "dtype": "float32"
        },
        {
          "name": "StatefulPartitionedCall/model/mobilenetv2_1.00_160/block_8_expand/Conv2D_weights",
          "shape": [1, 1, 64, 384],
          "dtype": "float32"
        },
        {
          "name": "StatefulPartitionedCall/model/mobilenetv2_1.00_160/block_8_expand/Conv2D_bn_offset",
          "shape": [384],
          "dtype": "float32"
        },
        {
          "name": "StatefulPartitionedCall/model/mobilenetv2_1.00_160/block_8_depthwise/depthwise_weights",
          "shape": [3, 3, 384, 1],
          "dtype": "float32"
        },
        {
          "name": "StatefulPartitionedCall/model/mobilenetv2_1.00_160/block_8_depthwise/depthwise_bn_offset",
          "shape": [384],
          "dtype": "float32"
        },
        {
          "name": "StatefulPartitionedCall/model/mobilenetv2_1.00_160/block_8_project/Conv2D_weights",
          "shape": [1, 1, 384, 64],
          "dtype": "float32"
        },
        {
          "name": "StatefulPartitionedCall/model/mobilenetv2_1.00_160/block_15_project/Conv2D_weights",
          "shape": [1, 1, 960, 160],
          "dtype": "float32"
        },
        {
          "name": "StatefulPartitionedCall/model/mobilenetv2_1.00_160/block_8_project/Conv2D_bn_offset",
          "shape": [64],
          "dtype": "float32"
        },
        {
          "name": "StatefulPartitionedCall/model/mobilenetv2_1.00_160/block_9_expand/Conv2D_weights",
          "shape": [1, 1, 64, 384],
          "dtype": "float32"
        },
        {
          "name": "StatefulPartitionedCall/model/mobilenetv2_1.00_160/Conv_1/Conv2D_bn_offset",
          "shape": [1280],
          "dtype": "float32"
        },
        {
          "name": "StatefulPartitionedCall/model/mobilenetv2_1.00_160/block_9_expand/Conv2D_bn_offset",
          "shape": [384],
          "dtype": "float32"
        },
        {
          "name": "StatefulPartitionedCall/model/mobilenetv2_1.00_160/block_15_project/Conv2D_bn_offset",
          "shape": [160],
          "dtype": "float32"
        },
        {
          "name": "StatefulPartitionedCall/model/mobilenetv2_1.00_160/block_9_depthwise/depthwise_weights",
          "shape": [3, 3, 384, 1],
          "dtype": "float32"
        },
        {
          "name": "StatefulPartitionedCall/model/mobilenetv2_1.00_160/block_9_depthwise/depthwise_bn_offset",
          "shape": [384],
          "dtype": "float32"
        },
        {
          "name": "StatefulPartitionedCall/model/mobilenetv2_1.00_160/block_9_project/Conv2D_weights",
          "shape": [1, 1, 384, 64],
          "dtype": "float32"
        },
        {
          "name": "StatefulPartitionedCall/model/mobilenetv2_1.00_160/block_9_project/Conv2D_bn_offset",
          "shape": [64],
          "dtype": "float32"
        },
        {
          "name": "StatefulPartitionedCall/model/mobilenetv2_1.00_160/block_10_expand/Conv2D_weights",
          "shape": [1, 1, 64, 384],
          "dtype": "float32"
        },
        {
          "name": "StatefulPartitionedCall/model/mobilenetv2_1.00_160/block_10_expand/Conv2D_bn_offset",
          "shape": [384],
          "dtype": "float32"
        },
        {
          "name": "StatefulPartitionedCall/model/mobilenetv2_1.00_160/block_16_expand/Conv2D_weights",
          "shape": [1, 1, 160, 960],
          "dtype": "float32"
        },
        {
          "name": "StatefulPartitionedCall/model/mobilenetv2_1.00_160/block_10_depthwise/depthwise_weights",
          "shape": [3, 3, 384, 1],
          "dtype": "float32"
        },
        {
          "name": "StatefulPartitionedCall/model/mobilenetv2_1.00_160/block_10_depthwise/depthwise_bn_offset",
          "shape": [384],
          "dtype": "float32"
        },
        {
          "name": "StatefulPartitionedCall/model/mobilenetv2_1.00_160/block_10_project/Conv2D_weights",
          "shape": [1, 1, 384, 96],
          "dtype": "float32"
        },
        {
          "name": "StatefulPartitionedCall/model/mobilenetv2_1.00_160/block_10_project/Conv2D_bn_offset",
          "shape": [96],
          "dtype": "float32"
        },
        {
          "name": "StatefulPartitionedCall/model/mobilenetv2_1.00_160/block_11_expand/Conv2D_weights",
          "shape": [1, 1, 96, 576],
          "dtype": "float32"
        },
        {
          "name": "StatefulPartitionedCall/model/mobilenetv2_1.00_160/block_16_expand/Conv2D_bn_offset",
          "shape": [960],
          "dtype": "float32"
        },
        {
          "name": "StatefulPartitionedCall/model/mobilenetv2_1.00_160/block_11_expand/Conv2D_bn_offset",
          "shape": [576],
          "dtype": "float32"
        },
        {
          "name": "StatefulPartitionedCall/model/mobilenetv2_1.00_160/block_11_depthwise/depthwise_weights",
          "shape": [3, 3, 576, 1],
          "dtype": "float32"
        },
        {
          "name": "StatefulPartitionedCall/model/mobilenetv2_1.00_160/block_11_depthwise/depthwise_bn_offset",
          "shape": [576],
          "dtype": "float32"
        },
        {
          "name": "StatefulPartitionedCall/model/mobilenetv2_1.00_160/block_11_project/Conv2D_weights",
          "shape": [1, 1, 576, 96],
          "dtype": "float32"
        },
        {
          "name": "StatefulPartitionedCall/model/mobilenetv2_1.00_160/block_11_project/Conv2D_bn_offset",
          "shape": [96],
          "dtype": "float32"
        },
        {
          "name": "StatefulPartitionedCall/model/mobilenetv2_1.00_160/block_12_expand/Conv2D_weights",
          "shape": [1, 1, 96, 576],
          "dtype": "float32"
        },
        {
          "name": "StatefulPartitionedCall/model/mobilenetv2_1.00_160/block_16_depthwise/depthwise_weights",
          "shape": [3, 3, 960, 1],
          "dtype": "float32"
        },
        {
          "name": "StatefulPartitionedCall/model/mobilenetv2_1.00_160/block_12_expand/Conv2D_bn_offset",
          "shape": [576],
          "dtype": "float32"
        },
        {
          "name": "StatefulPartitionedCall/model/mobilenetv2_1.00_160/block_12_depthwise/depthwise_weights",
          "shape": [3, 3, 576, 1],
          "dtype": "float32"
        },
        {
          "name": "StatefulPartitionedCall/model/mobilenetv2_1.00_160/block_12_depthwise/depthwise_bn_offset",
          "shape": [576],
          "dtype": "float32"
        },
        {
          "name": "StatefulPartitionedCall/model/mobilenetv2_1.00_160/block_12_project/Conv2D_weights",
          "shape": [1, 1, 576, 96],
          "dtype": "float32"
        },
        {
          "name": "StatefulPartitionedCall/model/mobilenetv2_1.00_160/block_16_depthwise/depthwise_bn_offset",
          "shape": [960],
          "dtype": "float32"
        },
        {
          "name": "StatefulPartitionedCall/model/mobilenetv2_1.00_160/block_12_project/Conv2D_bn_offset",
          "shape": [96],
          "dtype": "float32"
        },
        {
          "name": "StatefulPartitionedCall/model/mobilenetv2_1.00_160/block_13_expand/Conv2D_weights",
          "shape": [1, 1, 96, 576],
          "dtype": "float32"
        },
        {
          "name": "StatefulPartitionedCall/model/mobilenetv2_1.00_160/block_13_expand/Conv2D_bn_offset",
          "shape": [576],
          "dtype": "float32"
        },
        {
          "name": "StatefulPartitionedCall/model/mobilenetv2_1.00_160/block_13_depthwise/depthwise_weights",
          "shape": [3, 3, 576, 1],
          "dtype": "float32"
        },
        {
          "name": "StatefulPartitionedCall/model/mobilenetv2_1.00_160/block_13_depthwise/depthwise_bn_offset",
          "shape": [576],
          "dtype": "float32"
        },
        {
          "name": "StatefulPartitionedCall/model/mobilenetv2_1.00_160/block_13_project/Conv2D_weights",
          "shape": [1, 1, 576, 160],
          "dtype": "float32"
        },
        {
          "name": "StatefulPartitionedCall/model/mobilenetv2_1.00_160/block_16_project/Conv2D_weights",
          "shape": [1, 1, 960, 320],
          "dtype": "float32"
        },
        {
          "name": "StatefulPartitionedCall/model/mobilenetv2_1.00_160/block_13_project/Conv2D_bn_offset",
          "shape": [160],
          "dtype": "float32"
        }
      ]
    }
  ]
}
